bagging/parameters/parameters_3net4bagging.pth (torch, 797047 bytes, 4 tensors)

fc1.weight f4 [250, 784]
0	0xbc4bacbc	-0.01243132
1	0x3c7868bc	0.015161689
2	0xbb64c0b8	-0.0034904908
3	0xbc142478	-0.009041898
4	0xbcd74a91	-0.026280673
5	0xbc612db6	-0.0137438085
6	0xbd07b2f7	-0.03312966
7	0xbbd095ba	-0.006365505
8	0xbc2ce1d5	-0.010551889
9	0xbca9bc19	-0.020719575
10	0xbd1ce051	-0.038299862
11	0xbd4b7018	-0.049667448
12	0xbd8407b6	-0.06446783
13	0xbc4cbfeb	-0.012496929
14	0xbd408b09	-0.047007594
15	0xbc9b2339	-0.018937694
16	0xbd44d42a	-0.048053898
17	0xbd52c7ad	-0.051459957
18	0xbc7530ac	-0.014965218
19	0x3bc62bbf	0.0060476954
20	0x3c95e855	0.018299261
21	0x3c0cba96	0.008589407
22	0xbc0097bd	-0.007848677
23	0xbca89c68	-0.020582393
24	0xbcf7d1c5	-0.030251393
25	0xbd1435ce	-0.036184125
26	0xbc6ef158	-0.014583908
27	0xbd0f9cc4	-0.035061613
28	0xbd11bdea	-0.035581507
29	0xbcaa32ee	-0.020776238
30	0x3c651025	0.0139809
31	0xbbc085b8	-0.0058753155
32	0xbcf77fb3	-0.030212259
33	0xbd2e1ee4	-0.04250993
34	0x3cb32dca	0.02187242
35	0x3c3cd9bb	0.01152652
36	0xbd0f8ba4	-0.03504528
37	0xbd1f50c6	-0.03889539
38	0xbda73379	-0.081641145
39	0xbd9c6f9e	-0.07638477
40	0xbdbdbeba	-0.09264894
41	0xbd6c9a51	-0.057764355
42	0xbd777bff	-0.060420986
43	0xbd8c268f	-0.06843292
44	0xbd0516a3	-0.03249229
45	0xbc41dbd3	-0.011832195
46	0x3d50870a	0.050910033
47	0x3c3c8c95	0.011508127
48	0xbcdfb63a	-0.027308572
49	0xbd49239b	-0.04910622
50	0xbbde6c55	-0.0067878165
51	0x395593bd	0.000203683
52	0xbcb200b9	-0.02172886
53	0xbc21608e	-0.009849681
54	0x3cbcdaa7	0.02305348
55	0xbcae0e6a	-0.021247108
56	0xbc14672e	-0.009057803
57	0x3d079c0e	0.03310781
58	0xbcbc87b7	-0.023013933
59	0x3c4642ac	0.012100857
60	0xbb9bbdeb	-0.0047528646
61	0x3893bf49	7.045136e-05
62	0xbcea9c37	-0.028638942
63	0xbc642788	-0.013925441
64	0xbd0f57b1	-0.03499574
65	0xbd7c0384	-0.06152679
66	0xbdb23c73	-0.08702936
67	0xbe07a95d	-0.132482
68	0xbdd4e7e9	-0.10395796
69	0xbe1daaa1	-0.15397121
70	0xbe4f5f50	-0.20251203
71	0xbe11641d	-0.14198346
72	0xbd88a4ce	-0.06672059
73	0xbd96b902	-0.07359506
74	0xba5fc7fc	-0.0008536575
75	0x3ceeff5d	0.029174501
76	0xbd7225d1	-0.059118096
77	0xbcd56757	-0.026050253
78	0xbd07c182	-0.033143528
79	0x3d52fc0e	0.05150991
80	0xbbc2310a	-0.005926256
81	0x3cd6986e	0.026195731
82	0xbc942e51	-0.018088492
83	0xbcff2fed	-0.031150782
84	0x3bcbc041	0.006217987
85	0x3b15f5ba	0.002288206
86	0xbd049472	-0.03236813
87	0x3d2e0a92	0.04249055
88	0xbd15a1c7	-0.036531236
89	0xba22bbd4	-0.0006207798
90	0x3c8b7d3a	0.017027486
91	0x3c8404a5	0.016115496
92	0xbd459913	-0.048241686
93	0xbd94f9de	-0.07274221
94	0xbdd4899e	-0.10377811
95	0xbd1aeb32	-0.037821956
96	0xbb8607a6	-0.0040902672
97	0xbd2e1517	-0.04250058
98	0xbe0b71a8	-0.13617575
99	0xbe5d98d0	-0.21640325
100	0xbdd13647	-0.10215431
101	0xbe1a03f8	-0.15040576
102	0xbc5a9e9f	-0.013343482
103	0xbcdc3748	-0.026881829
104	0xbc5519de	-0.0130066555
105	0xbd9497f7	-0.072555475
106	0xbce0be39	-0.027434455
107	0x3d21b580	0.039479733
108	0x3d95356b	0.07285579
109	0xbc2d4c63	-0.010577294
110	0x3c6894de	0.014195649
111	0xbbc71222	-0.0060751596
112	0x3c819977	0.015820248
113	0xbcd9c5c6	-0.026583564
114	0x3cc2adce	0.023764517
115	0xbb35230d	-0.00276393
116	0x3d303b43	0.043025266
117	0x3d378d6c	0.044812605
118	0x3cc9deb2	0.024642322
119	0xbd575653	-0.05257256
120	0xbd83834a	-0.06421526
121	0xbd8d5276	-0.06900494
122	0xbe18be35	-0.14916308
123	0xbd26720f	-0.04063612
124	0xbd9347c8	-0.071914256
125	0x3d138b83	0.03602172
126	0xbdc3f09d	-0.09567378
127	0xbe4b656f	-0.19862913
128	0xbe629a24	-0.22129112
129	0xbe040acd	-0.12894745
130	0xbc70fb10	-0.014708295
131	0xbc0f5d10	-0.008750215
132	0xbd60d407	-0.054889705
133	0x3c9d2239	0.019181358
134	0x3cc2ce37	0.023779972
135	0x3d47e29f	0.048800107
136	0x3d8e1a27	0.06938582
137	0x3c97bc88	0.018522516
138	0x3d113e5f	0.035459872
139	0x3af11083	0.0018391762
140	0x3c4be9d1	0.012445883
141	0x3bae4b46	0.005319032
142	0x3c8b92ad	0.017037714
143	0xbd0edbb7	-0.034877505
144	0xbb245ee5	-0.0025080976
145	0x3b89eab5	0.0042088875
146	0xbc74b771	-0.014936314
147	0xbd34912c	-0.04408376
148	0xbcaa8e0b	-0.020819684
149	0x3c939e85	0.018019924
150	0xbbee66f6	-0.0072754575
151	0x3cd1cedf	0.02561134
152	0x3bb8169c	0.0056179296
153	0xbdd31b2b	-0.10307916
154	0xbe397643	-0.1811152
155	0xbe28e787	-0.1649457
156	0xbda9902e	-0.08279453
157	0xbd25d517	-0.04048642
158	0xbdde2f91	-0.10848916
159	0x3b8784f5	0.0041357228
160	0xbcaeaeba	-0.02132355
161	0x3d8a7131	0.06759871
162	0x3d87d1b8	0.066317976
163	0x3deca1d5	0.115543045
164	0x3dc13606	0.09434132
165	0x3db86c4b	0.0900503
166	0x3d3b37f6	0.045707665
167	0x3bc76165	0.0060846084
168	0xbc41a7ed	-0.011819822
169	0xbcc042a5	-0.023469279
170	0xbc907b90	-0.017637044
171	0xbcc91eb9	-0.024550783
172	0xbca1dc2c	-0.019758306
173	0xbd45e604	-0.048315063
174	0xbd5a7883	-0.053337585
175	0xbdd84c1a	-0.1056139
176	0xbcad5337	-0.021157844
177	0x3ce09a98	0.027417466
178	0x3cbed918	0.023296878
179	0x3dc05c8c	0.09392652
180	0xbcf1b2c3	-0.029504186
181	0xbdf8e0eb	-0.12152275
182	0xbdc3dae3	-0.09563234
183	0x3cbcad0a	0.02303173
184	0xbd6dcc14	-0.058055952
185	0xbdef1b7b	-0.11675163
186	0xbc535c99	-0.012900495
187	0x3d7731d8	0.06035027
188	0x3d988e78	0.07449049
189	0x3b919826	0.0044431863
190	0xbd19d98b	-0.03756098
191	0x3c992e77	0.018698914
192	0xbc0760c0	-0.008262813
193	0x3d6fb78a	0.058524646
194	0x3d8547bd	0.065078236
195	0x3bcda9aa	0.006276329
196	0xbbda4b43	-0.006661804
197	0x3be870d2	0.0070935274
198	0xbc276986	-0.01021803
199	0x3d205f6d	0.039153505
200	0xbbdf6b60	-0.00681822
201	0xbd517048	-0.05113247
202	0x3d806c96	0.06270711
203	0x3d46c21f	0.048524972
204	0xbc997887	-0.01873423
205	0xbb90d795	-0.0044202306
206	0x3d8c97ac	0.068648666
207	0xbd1b9e72	-0.037992902
208	0x3dbafa58	0.091297805
209	0xbe885cae	-0.2663321
210	0xbe23a737	-0.15981756
211	0xbd750b65	-0.05982532
212	0xbd262d7c	-0.04057072
213	0xbdb2e8c6	-0.08735804
214	0xbc055aa8	-0.00813929
215	0xbd67362d	-0.05644815
216	0x3d071ecd	0.03298836
217	0x3e230509	0.1591989
218	0x3d5d102c	0.0539705
219	0x3cf730b3	0.030174589
220	0x3d939e5d	0.0720794
221	0x3d14c8ae	0.036324196
222	0x3c7b167b	0.015325184
223	0x3ad01c42	0.0015877562
224	0x3d0662b3	0.03280897
225	0x3c4a31df	0.012340992
226	0x3d007df1	0.031370107
227	0x3d02e8cb	0.03196029
228	0x3d4fee89	0.050764594
229	0xbd2866a7	-0.041113522
230	0x3dca8ce8	0.09890157
231	0x3ccd8f73	0.025092816
232	0x3d6f33f2	0.05839915
233	0x3d06bbad	0.032893825
234	0x3d6150bc	0.055008635
235	0xbd413beb	-0.047176283
236	0xbe523f69	-0.20532002
237	0xbe0e3bf4	-0.13890058
238	0xbddc2ece	-0.10751115
239	0xbca71001	-0.020393373
240	0x3dd7d730	0.10539091
241	0x3d8495fd	0.064739205
242	0xbd87e759	-0.06635923
243	0xbca50dbb	-0.020148149
244	0xbc0478bd	-0.008085427
245	0x3dd75ef2	0.10516156
246	0x3d97c31d	0.07410262
247	0x3e180423	0.14845328
248	0x3de6e4d1	0.11274112
249	0x3dd861c6	0.10565524
250	0x3d0bb478	0.034107655
251	0xbb0de6bd	-0.0021652423
252	0x3d042bde	0.032268398
253	0x3d4345a5	0.04767384
254	0x3c073ab9	0.008253747
255	0x3ccfac06	0.025350582

fc1.bias f4 [250]
0	0x3e69d67f	0.2283573
1	0xbeb29cf0	-0.3488536
2	0xbdcf5981	-0.101244934
3	0xbe72973c	-0.23690504
4	0x3cc9e111	0.024643453
5	0x3dbb3750	0.091414094
6	0xbf4ac017	-0.79199356
7	0xbee9334a	-0.45546943
8	0x3e1d8e07	0.1538621
9	0xbd54587a	-0.05184219
10	0x3e413c75	0.18870719
11	0x3e1c752c	0.15279073
12	0xbe7c10fb	-0.24615853
13	0x3e47699f	0.19473885
14	0xbe64d797	-0.22347866
15	0xbe5f3969	-0.21799244
16	0xbe0b2868	-0.13589633
17	0x3e2db612	0.16963986
18	0x3e2f0db8	0.17095077
19	0xbe86ebf2	-0.26351887
20	0xbe0eab76	-0.13932595
21	0x3dbb0513	0.09131827
22	0x3d999c0e	0.07500468
23	0x3ef51d5d	0.47873965
24	0x3f1d6985	0.61489135
25	0xbe30f226	-0.17279872
26	0xbdb5e12d	-0.088808395
27	0xbe2854cb	-0.16438596
28	0x3e4d635e	0.20057437
29	0x3ca3a2e0	0.019975126
30	0xbdfd837c	-0.12378594
31	0x3f0d0b7c	0.5509565
32	0xbead098f	-0.33796355
33	0x3ebbcbde	0.36678976
34	0xbe10703e	-0.14105317
35	0x3de50e9c	0.11184427
36	0xbe8149db	-0.2525166
37	0xbd08aa9b	-0.033365827
38	0xbf0b0342	-0.54301846
39	0xbda4421e	-0.08020423
40	0x3d1f0d30	0.038830936
41	0xbf5fce2e	-0.8742398
42	0xbea8dd9b	-0.32981572
43	0xbe3cfb54	-0.18455249
44	0x3f07de01	0.53073126
45	0xbcb467fc	-0.02202224
46	0xbe90fd61	-0.28318313
47	0xbea22661	-0.31669906
48	0xbe0a79c3	-0.13523011
49	0x3d616735	0.055030067
50	0x3ed2215d	0.4104108
51	0x3e48f07e	0.1962299
52	0x3e6ee802	0.23330691
53	0xbf0289c6	-0.50991476
54	0x3dc1b020	0.09457421
55	0xbdc90df1	-0.09817112
56	0xbde95cc1	-0.113946445
57	0xbe9e7b1e	-0.30953306
58	0x3b98b6f1	0.00466048
59	0xbda0a386	-0.078436896
60	0xbd60a10f	-0.054841097
61	0x3d08ce74	0.033400014
62	0xbf0203c7	-0.50787014
63	0xbe7f6052	-0.24939087
64	0xbde83975	-0.11339084
65	0xbe84cc93	-0.25937328
66	0xbf177d63	-0.591757
67	0x3be11a8f	0.006869621
68	0x3ceeae8c	0.029135965
69	0x3d8b44d7	0.068002395
70	0x3e14736d	0.14497156
71	0xbe211d56	-0.15733847
72	0xbe34d135	-0.17657931
73	0x3e3149d8	0.17313325
74	0xbe6edf79	-0.23327436
75	0xbe3d9fc1	-0.18517973
76	0x3e4881e8	0.19580805
77	0xbc8baefe	-0.017051216
78	0x3d2e9906	0.042626403
79	0x3d0b5520	0.03401673
80	0xbddeb0ee	-0.108735904
81	0xbd8e97b6	-0.0696253
82	0x3e4c1047	0.19928084
83	0xbf0dfc82	-0.5546342
84	0x3d5d81dc	0.05407892
85	0x3dc6e9cb	0.09712561
86	0x3e943574	0.28947031
87	0xbe6dfbac	-0.23240536
88	0x3e1a4f46	0.15069303
89	0xbe464118	-0.19360769
90	0xbe4813b2	-0.19538763
91	0x3ee1aa43	0.44075212
92	0xbd83bac5	-0.06432108
93	0x3db3f260	0.08786464
94	0x3eb10001	0.34570315
95	0x3e250975	0.16116889
96	0x3e8d82ee	0.27638954
97	0xbb8f521a	-0.004373801
98	0xbe335a88	-0.17515004
99	0xbee0ac41	-0.4388142
100	0x3ee517da	0.4474476
101	0x3f5e3526	0.8679985
102	0x3ddf422d	0.10901294
103	0xbdfc93b9	-0.12332863
104	0x3dbea9fe	0.09309767
105	0xbe5d709f	-0.21624993
106	0x3c633883	0.013868454
107	0x3be4c1be	0.0069811037
108	0xbeeadad2	-0.45870072
109	0xbbe73d4b	-0.0070568672
110	0xbd8f37bd	-0.06993053
111	0xbe12bb86	-0.14329347
112	0x3e64b0c7	0.2233306
113	0x3db2ad36	0.087244436
114	0x3e63e16e	0.22253963
115	0xbe012228	-0.12610686
116	0xbd6571b8	-0.056016654
117	0x3e910341	0.28322795
118	0x3f47492a	0.77846014
119	0xbd89865a	-0.06715079
120	0xbd228684	-0.039679065
121	0xbeeb4565	-0.4595138
122	0xbda79988	-0.08183581
123	0x3ed94b8d	0.42440453
124	0x3ea5e412	0.32400566
125	0x3f1a95dd	0.60384923
126	0x3e1fcaa4	0.15604645
127	0xbe2383a5	-0.15968187
128	0xbea58ab9	-0.323324
129	0xbe725e98	-0.23668897
130	0xbd385abe	-0.045008413
131	0x3d277066	0.040878676
132	0x3dfbbb79	0.12291617
133	0xbe21048c	-0.15724391
134	0x3c049f6f	0.008094653
135	0x3dfc0ac2	0.123067394
136	0xbe0a0e18	-0.13481939
137	0x3df4ca14	0.11952606
138	0x3e533018	0.20623815
139	0xbc9a1e30	-0.018813223
140	0xbd003d31	-0.031308357
141	0xbd253caa	-0.040341057
142	0xbe0fc656	-0.14040503
143	0xbdfbb219	-0.12289829
144	0xba84e3cd	-0.0010138691
145	0xbb17d1d7	-0.0023165846
146	0xbeaa5985	-0.33271423
147	0xbda5a1e6	-0.0808752
148	0xbe0a0687	-0.13479052
149	0x3dcea85e	0.10090707
150	0x3e2f787d	0.17135806
151	0x3d68daba	0.05684922
152	0xbe54a397	-0.2076553
153	0xbdb3724f	-0.08762037
154	0x3b65bec1	0.0035056325
155	0x3de87201	0.113498695
156	0x3eff8ab8	0.49910522
157	0xbec314ee	-0.38101906
158	0xbdcba56b	-0.0994366
159	0x3e6410c1	0.22272016
160	0x3e234c6c	0.15947121
161	0x3df17845	0.11790518
162	0xbea295c6	-0.31754893
163	0xbcd5f9cf	-0.026120095
164	0xbedba099	-0.42895964
165	0xbe8f6bf6	-0.28012055
166	0xbccafa63	-0.024777597
167	0xbe20c18a	-0.1569883
168	0xbcef9b2d	-0.029248798
169	0xbf1a6fc3	-0.60326785
170	0x3ec72694	0.3889662
171	0x3d448146	0.047974847
172	0x3e00f704	0.12594229
173	0x3ebded01	0.37094882
174	0xbe3da469	-0.18519749
175	0xbef3f701	-0.47649387
176	0x3e586a1c	0.21134228
177	0x3e962236	0.29322976
178	0xbf025d57	-0.50923675
179	0x3e72fb38	0.23728645
180	0xbe54be89	-0.20775808
181	0xbde8f961	-0.1137569
182	0xbe001a65	-0.12510069
183	0xbe55f82d	-0.20895453
184	0xbcb919e9	-0.022595363
185	0x3df9fee4	0.1220682
186	0xbe3a1e59	-0.18175639
187	0x3d87889d	0.06617854
188	0xbeb6402f	-0.35595843
189	0x3e0710d0	0.13190007
190	0x3e6c08d7	0.23050247
191	0xbed01d9e	-0.40647596
192	0xbe1c243c	-0.15248197
193	0x3cc1f6bb	0.02367722
194	0xbc9d4183	-0.019196277
195	0x3e20347e	0.15645024
196	0x3efcfb0f	0.49410293
197	0xbd78039e	-0.060550325
198	0xbd8d4353	-0.06897607
199	0x3edc9c62	0.4308806
200	0x3ef71074	0.4825474
201	0x3d2e9409	0.042621646
202	0xbefb846b	-0.49124464
203	0x3d5613be	0.05226492
204	0x3c24e5b9	0.010064536
205	0xbd3e5d85	-0.046475906
206	0x3ded9419	0.11600513
207	0x3e5cfe43	0.21581368
208	0xbd94a6c0	-0.072583675
209	0xbe19115c	-0.14948028
210	0xbe4433fe	-0.19160458
211	0x3cf453e9	0.029825168
212	0xbeda0860	-0.42584515
213	0x3d4de482	0.05026675
214	0xbeb7e726	-0.3591854
215	0xbe2adb34	-0.16685182
216	0x3e63a17f	0.22229575
217	0xbd4185d8	-0.047246784
218	0x3d4cdb7b	0.050014
219	0x3ea34ab7	0.3189294
220	0xbf0d54b3	-0.55207366
221	0x3eafd21b	0.34339985
222	0x3ce11d4a	0.027479786
223	0x3e80af4d	0.25133744
224	0xbec71b2d	-0.3888792
225	0xbe479d09	-0.19493498
226	0x3dab8d63	0.08376577
227	0x3c4dae30	0.012553737
228	0x3dbef94e	0.09324895
229	0x3e20ec44	0.15715128
230	0xbe0ada89	-0.13559927
231	0xbd391bf6	-0.04519268
232	0x3e3fa3e2	0.1871486
233	0xbe729ccf	-0.2369263
234	0x3e34fa1d	0.17673536
235	0x3d9bfbd9	0.076163955
236	0x3dc1ce24	0.09463146
237	0xbf639abb	-0.88907975
238	0x3e46b2de	0.1940417
239	0x3f0cb83e	0.5496863
240	0x3e8761f3	0.26441917
241	0xbf044436	-0.5166658
242	0xbe488c61	-0.195848
243	0x3e4c8398	0.19972074
244	0xbee6ec3e	-0.45102113
245	0x3db8c9f4	0.090228945
246	0xba6cf09c	-0.0009038539
247	0x3e50dab4	0.20395929
248	0xbebbe9aa	-0.3670171
249	0x3d42061e	0.047369115

fc2.weight f4 [10, 250]
0	0x3eb3ca6b	0.3511537
1	0xbe7db78c	-0.24777049
2	0x3fb39597	1.4030026
3	0x3f00bf51	0.50291926
4	0x3eddd122	0.43323618
5	0x3f0539a6	0.5204109
6	0x3ee29b55	0.44259134
7	0xbf719c6e	-0.9437932
8	0x3f4821b1	0.7817641
9	0x3fec447b	1.8458399
10	0xbe8d6b30	-0.2762084
11	0xbea5c3d7	-0.32375976
12	0x3f85671a	1.0422089
13	0x3d207f92	0.03918416
14	0x3e175204	0.1477738
15	0x3efaee16	0.4900977
16	0xbf33aa18	-0.7018142
17	0xbece2b16	-0.40267247
18	0x3f200753	0.62511176
19	0xbf887b86	-1.0662696
20	0xbd86eedd	-0.06588528
21	0x3ee05847	0.4381735
22	0x3f0fae66	0.56125486
23	0x3de42510	0.111398816
24	0xbf83cec0	-1.029747
25	0x3dfadfe5	0.12249736
26	0xbe892f52	-0.26793915
27	0xbf1a526f	-0.60282034
28	0xbf97822d	-1.1836601
29	0xbfbdd367	-1.483014
30	0xbf8d92c4	-1.1060414
31	0xbfbb16bf	-1.4616317
32	0xbeed9ee8	-0.46410298
33	0x3f6b9f7b	0.9204022
34	0x3eab3996	0.33442372
35	0x3ec5f40b	0.38662753
36	0x3ef3d678	0.47624564
37	0x3d66a8df	0.05631339
38	0xbe034a3a	-0.12821284
39	0x3e9b76b7	0.3036401
40	0xbea3e5ad	-0.32011166
41	0xbfa6cd2b	-1.3031362
42	0xbd9a73d5	-0.075416245
43	0x3ef72ac5	0.48274818
44	0xbf442df5	-0.76632625
45	0xbeb95030	-0.3619399
46	0xbe792bc8	-0.24333107
47	0xbf199356	-0.5999044
48	0xbecab93a	-0.39594442
49	0x3e72c2b7	0.2370709
50	0x3f51959f	0.8186893
51	0xbd91002a	-0.070801094
52	0xbe935c0d	-0.28781167
53	0xbdc8a804	-0.097976714
54	0x3f1ab1a4	0.6042731
55	0xbe52f80e	-0.20602438
56	0x3e87f868	0.26556706
57	0xbecdd37e	-0.40200418
58	0x3db0dea0	0.08636212
59	0xbec0f0db	-0.37683758
60	0x3fbb7622	1.4645426
61	0x3f681fb4	0.90673375
62	0xbf72ebac	-0.94890857
63	0x3fad8be3	1.3558315
64	0x3f199b22	0.6000234
65	0xbeb0d715	-0.34539095
66	0xbefc00a3	-0.49219236
67	0x3da2c387	0.0794745
68	0xbf8beb66	-1.0931213
69	0xbe78c07b	-0.24292175
70	0xbd6a5b34	-0.057215884
71	0x3e81dbc6	0.25362986
72	0xbfee4a3c	-1.8616405
73	0x3f77d9b8	0.9681659
74	0xbfbb42de	-1.4629781
75	0x3ee784c1	0.4521847
76	0x3e24f662	0.16109613
77	0xbee0e1f4	-0.4392239
78	0x3f238242	0.6387063
79	0x3c8925ce	0.01674166
80	0xbe0d999c	-0.13828129
81	0xbf350dec	-0.7072437
82	0x3c4a3835	0.012342502
83	0xbfe90919	-1.8205901
84	0x3f00f0ec	0.5036762
85	0x3f9670ec	1.1753211
86	0xbf4bde83	-0.796364
87	0x3f993fbe	1.1972578
88	0x3d929648	0.0715757
89	0xbf82dcc4	-1.0223622
90	0x3ec03598	0.3754089
91	0x3f51fcba	0.82026255
92	0x3f314283	0.69242114
93	0x3df48795	0.11939923
94	0x3e0aa42b	0.13539188
95	0xbf0ddc6c	-0.5541446
96	0x3f08e444	0.53473306
97	0x3e80aaad	0.25130215
98	0xbe5f07db	-0.2178034
99	0xbf078130	-0.529315
100	0x3e6247da	0.22097722
101	0xbd1c188a	-0.03810934
102	0xbe23048c	-0.15919703
103	0x3f9089f7	1.1292104
104	0xbf53aa24	-0.8268149
105	0xbfaf1c7c	-1.3680568
106	0x3e85b67f	0.26115796
107	0x3da12f12	0.07870306
108	0x3ebc1829	0.36737183
109	0x3da90754	0.08253351
110	0xbe2c8860	-0.16848898
111	0x3f20b725	0.62779456
112	0xbe75e66a	-0.24013677
113	0xbe8ef3d0	-0.2792039
114	0xbf90ebd4	-1.1321969
115	0x3f53ed7f	0.82784265
116	0xbfd6bbf2	-1.6776106
117	0xbddf87c6	-0.109145686
118	0x3ffd3780	1.9782562
119	0xbe0c8a1d	-0.13724561
120	0xbe629779	-0.22128095
121	0x3ec3bab7	0.3822839
122	0xbdfd8a32	-0.12379874
123	0x3bf42508	0.0074507035
124	0x3ee58fdf	0.44836327
125	0xbe36bd3f	-0.17845629
126	0xbe0d7c17	-0.13816868
127	0xbd77979b	-0.060447317
128	0xbf223d18	-0.6337447
129	0xbe8192e1	-0.25307372
130	0x3df3ecc6	0.11910395
131	0x3e68028c	0.22657222
132	0xbf452100	-0.7700348
133	0x3ed9d2e1	0.425437
134	0x3df2228a	0.11822994
135	0xbfad1216	-1.3521144
136	0x3f0174a7	0.5056862
137	0xbf5e467b	-0.86826295
138	0xbf27cc9b	-0.6554658
139	0xbe40b002	-0.18817142
140	0xbea7d252	-0.3277765
141	0x3d19471d	0.037421335
142	0x3ead9ca8	0.33908582
143	0x3e0c83a6	0.13722095
144	0xbe797faf	-0.24365114
145	0x3f28f971	0.6600562
146	0x3ed7ae09	0.42124966
147	0xbdfb053f	-0.1225686
148	0xbe7ac50a	-0.24489227
149	0xbc362e78	-0.011119477
150	0xbf1a50f6	-0.60279787
151	0xbd39a17b	-0.045320015
152	0xbebff645	-0.37492576
153	0x3ea85217	0.3287513
154	0xbda17079	-0.078827806
155	0x3f0c4d60	0.54805565
156	0xbf255bd8	-0.6459327
157	0x3f8663ed	1.0499245
158	0xbefde9a5	-0.4959232
159	0x3d298d59	0.041394565
160	0xbd78893a	-0.060677744
161	0xbecb41d2	-0.39698654
162	0x40223fb4	2.5351381
163	0x3d70d3dd	0.0587958
164	0x3f44c816	0.76867807
165	0x3f86c703	1.0529484
166	0x3f16b42d	0.58868676
167	0xbf151d28	-0.58247614
168	0x3e8e5b09	0.2780383
169	0x3ffa2825	1.9543501
170	0xbed4ae4b	-0.41539225
171	0xbeae6803	-0.3406373
172	0xbf106b00	-0.5641327
173	0xbf731fa3	-0.9497015
174	0xbfe92f27	-1.8217515
175	0xbe3ab28d	-0.18232174
176	0x3fa45bec	1.2840552
177	0xbee61b69	-0.44942787
178	0xbf226a5b	-0.63443536
179	0x3edc0aad	0.42976895
180	0x3ef750f5	0.48303953
181	0x3f136127	0.5757012
182	0xbe9b5df1	-0.3034511
183	0xbd9e1e4a	-0.07720621
184	0xbf283cd5	-0.6571782
185	0x3eedbc10	0.46432543
186	0xbe7808fb	-0.24222176
187	0x3caf6498	0.021410272
188	0x3e0ff71c	0.14059108
189	0xbf5762b3	-0.8413498
190	0x3ecaa598	0.39579463
191	0xbf279302	-0.6545869
192	0xbb4dc3a2	-0.0031397124
193	0xbdabc746	-0.08387618
194	0x3e07241d	0.1319737
195	0x3f53a24a	0.8266951
196	0xbe832457	-0.25613663
197	0xbf59b0f0	-0.8503561
198	0xbf3731de	-0.71560466
199	0x3e8eb9f7	0.27876255
200	0x3f1e8eff	0.61936945
201	0xbf07f940	-0.531147
202	0xbd0438fd	-0.03228091
203	0x3f3a4b26	0.7277092
204	0x3e9079b0	0.2821784
205	0x3f392d19	0.7233444
206	0xbe24a0d5	-0.16076978
207	0xbf940af4	-1.1565843
208	0xbe1ffcd4	-0.1562379
209	0x3eb3cb11	0.35115865
210	0x3e217575	0.15767463
211	0x3e1ac761	0.1511512
212	0xbe390edd	-0.18072076
213	0xbf0f7b84	-0.56047845
214	0xbf3998db	-0.72498864
215	0xbf16fc9f	-0.5897922
216	0x3e7b2aed	0.24528094
217	0x3eab01eb	0.333999
218	0x3e03b324	0.12861305
219	0xbe7d7f71	-0.24755646
220	0xbfb41c7a	-1.407119
221	0x3ed3309e	0.4124803
222	0xbef1ad2c	-0.47202432
223	0xbf16c1dc	-0.58889556
224	0xbf7e14da	-0.99250567
225	0x3e68b503	0.227253
226	0x3b8eaa10	0.004353769
227	0xbe2bb2de	-0.16767451
228	0xbe3e04b9	-0.18556489
229	0xbf0b65ad	-0.5445202
230	0x3e983260	0.29725933
231	0xbe8213bc	-0.2540568
232	0xbf29d6b7	-0.66343254
233	0xbf51b68c	-0.8191917
234	0xbf299400	-0.66241455
235	0x3d91cd21	0.07119203
236	0xbef65a28	-0.4811566
237	0xbf21a157	-0.6313681
238	0x3f07ba0e	0.5301827
239	0x3fe27669	1.7692386
240	0x3ef86192	0.4851194
241	0x3fb73f42	1.431618
242	0x3e7070e1	0.2348056
243	0x3efaf47b	0.4901465
244	0x3f9d39e8	1.2283297
245	0x3ec12c56	0.37729138
246	0x3f20ca29	0.6280847
247	0x3ed3e761	0.41387466
248	0x3eb10502	0.34574133
249	0xbdf28213	-0.11841216
250	0xbeff9e16	-0.49925297
251	0x3f03b435	0.5144685
252	0xbe185c30	-0.14878917
253	0xbe8b184c	-0.27166975
254	0x3f0257e4	0.5091536
255	0xbd8d4605	-0.06898121

fc2.bias f4 [10]
0	0xbda4ea06	-0.08052449
1	0x3e05a3f4	0.13050824
2	0x3ce642ae	0.028107967
3	0x3cb2cf51	0.021827372
4	0xbd8948fa	-0.06703372
5	0x3c2fe135	0.010734846
6	0xbd597aea	-0.053095736
7	0x3e2ac839	0.16677941
8	0xbc169d4d	-0.009192777
9	0xbe0ebf85	-0.13940246
