bagging/parameters/parameters_5net4bagging.pth (torch, 796993 bytes, 4 tensors)

fc1.weight f4 [250, 784]
000000 52 f0 00 bd fc 07 30 3c 31 70 15 be e5 0e 04 bc
       -0.031479187 0.010744091 -0.14593579 -0.008060192
000010 85 b5 47 3c 9b 2a 73 3e 6d cb 2e 3f 38 69 30 3f
       0.012189274 0.23746721 0.68279153 0.6891055
000020 65 1c 0f 3f b0 1d a4 be 7d 93 b2 3e bc 12 27 3e
       0.559027 -0.320539 0.3487815 0.1631574
000030 82 25 db be ac 8f 77 3f 2d e4 11 3f a1 d1 3c 3e
       -0.42802054 0.967036 0.56988794 0.18439342
000040 45 96 a0 bf 04 eb 82 bf 6d 00 ab be a4 78 68 bf
       -1.2545859 -1.0227971 -0.33398762 -0.90809083
000050 f0 50 af be 1d eb 91 3e 2a bb e7 be f4 3a 8a 3d
       -0.34241438 0.2849969 -0.45259982 0.06749526
000060 85 53 05 3c d0 a7 89 3d 85 10 10 bc 2e cd ef bc
       0.008137588 0.06721461 -0.008793001 -0.029272642
000070 6e 66 fb 3a 4a 92 c8 bc 19 d8 71 be 94 64 d6 be
       0.0019180307 -0.024483819 -0.23617591 -0.4187361
000080 be 3b 1b bf bc 61 f2 be fb dd 9e be 26 dd b1 be
       -0.60638034 -0.4734019 -0.31028733 -0.34739035
000090 9a 63 04 bd 43 74 01 bf d8 e0 0b be 9a 72 52 bf
       -0.03232155 -0.50568026 -0.1365999 -0.8220612
0000a0 09 36 82 bf 2e 67 22 bf 96 b3 66 3e c2 96 26 bf
       -1.017274 -0.6343869 0.22529444 -0.6507379
0000b0 bd 76 a8 be 9a ee 96 3f 5f 90 62 3f 33 71 b5 be
       -0.3290309 1.1791565 0.8850154 -0.35437927
0000c0 0d 48 0c bd 0c 59 9b bd 56 8d 2e 3f 94 b3 7f 3f
       -0.0342484 -0.07585344 0.6818441 0.9988339
0000d0 b4 2b d1 3d 45 b2 9a bc a5 f7 cc 3b 65 a9 1f 3c
       0.10213414 -0.018883834 0.0062551075 0.009744977
0000e0 aa 49 60 3c e5 50 eb 3c 6c 76 f3 bc 06 58 04 3e
       0.013689438 0.028725097 -0.029719554 0.12924203
0000f0 ec a5 fc 3e c8 98 33 3f b9 5a 53 3f 5f 8d 55 3f
       0.49345338 0.70155 0.82560307 0.8341884
000100 33 3c 88 3e 4b bb 54 be d1 d4 08 3f a2 cf 35 3e
       0.26608428 -0.20774572 0.5344973 0.17754987
000110 9e 35 f8 bd b5 fb 16 bf ef bd 88 bf 8f 70 33 3e
       -0.12119602 -0.58977824 -1.0682963 0.17523406
000120 f4 8f a2 3e 69 6b b4 3e 08 8b 55 3e 4d 5a 1e 3e
       0.31750453 0.35238197 0.20853817 0.15464135
000130 0d e7 29 bf 7b 16 79 bf 48 c1 9b be 42 98 2e 3e
       -0.6636818 -0.9729993 -0.304209 0.17050269
000140 e8 d3 e1 be 27 1b ba 3e ec 8d 6a be fa 4a c2 bc
       -0.44106984 0.3634884 -0.22905701 -0.023717392
000150 dc 4f 8f bd ab 30 89 bd 06 87 e3 3d 67 b7 d7 3e
       -0.06997654 -0.06698736 0.11109738 0.42132112
000160 f4 5b 8d 3e 13 35 d2 bc 29 fb 1e bf e6 cc fa 3d
       0.27609217 -0.025660073 -0.6210199 0.122461125
000170 84 07 61 bf b1 15 5c bf ae 1d 5c be 4d ce 1e bf
       -0.8790209 -0.859706 -0.21495697 -0.6203354
000180 08 5a 16 bd e7 7e df be ec 14 f0 be cd 3d 4d bf
       -0.036706954 -0.43651506 -0.46890962 -0.80172426
000190 af 48 83 be 9c ff 52 3e 2d fa 9c 3e a9 32 c2 3c
       -0.2564139 0.2060532 0.3065962 0.023705797
0001a0 a4 10 10 bb c0 94 99 3d ab 47 22 bf 2b c7 cd be
       -0.0021982575 0.07499075 -0.63390607 -0.40191016
0001b0 09 dd 13 3e 4e 83 82 3f 35 fd dc bd 91 0f 48 be
       0.14439787 1.0196321 -0.10790483 -0.19537188
0001c0 47 58 0a be d7 43 29 3e 15 a8 1e bc c8 ba ab 3e
       -0.13510238 0.16529785 -0.009683629 0.3354094
0001d0 8c 9b 23 3f 53 f3 68 3e 22 0e 43 3b d9 b2 2c bf
       0.6390922 0.22749071 0.0029763062 -0.674604
0001e0 c5 d0 4c bf 19 0f ce bf 18 a3 6f 3c 7d 83 b5 3d
       -0.8000606 -1.6098357 0.014626287 0.0886297
0001f0 d3 f7 1d 3e ee 18 8b 3d f5 dd 66 3e c0 7e 1f 3e
       0.15426569 0.06791864 0.22545607 0.15575695
000200 c5 a9 a1 3c 99 2c a9 bb 23 88 93 be 68 a8 4d be
       0.019734273 -0.005162787 -0.28814802 -0.20083773
000210 3f b5 09 3e be 25 93 3e 73 2f b4 3e 2e 00 b2 be
       0.13448046 0.28739733 0.3519245 -0.34765762
000220 71 76 20 bf 31 7e 64 bf 59 21 21 bf 30 97 c7 be
       -0.6268073 -0.8925505 -0.6294151 -0.38982534
000230 a2 e4 3b be d6 38 21 3f 5b 30 18 3f b5 5b 84 3e
       -0.18348935 0.6297735 0.59448785 0.25851217
000240 af a8 26 3f 57 a5 3e 3f 2a fa 06 3f df 7f a6 bb
       0.6510114 0.7447104 0.5272547 -0.0050811614
000250 65 f5 5a be 78 66 d2 be d5 e3 94 bd 7d 96 2b be
       -0.21382673 -0.41093802 -0.07270018 -0.16756625
000260 4a f9 c4 bd 1e bf fb bd 4f e8 1c be 4a 5e 57 be
       -0.096178606 -0.12292312 -0.15322994 -0.21032062
000270 21 ac d2 be ca d5 ef bd 47 a7 9f bd 4a c3 16 3e
       -0.4114695 -0.11710699 -0.077955775 0.14722934
000280 3e a6 42 3e 52 ce 1f 3b 96 bf 16 3e aa f6 c3 3c
       0.19008729 0.002438445 0.14721522 0.02392133
000290 00 a6 a6 be a1 39 ff be d9 5c 1a bf 0e f1 ad 3d
       -0.32548523 -0.49848655 -0.60297924 0.08493243
0002a0 e1 bf 6a 3e d5 70 63 3d 37 18 2e 3f ec 45 98 3f
       0.22924758 0.055527527 0.680057 1.1896338
0002b0 9d 47 28 3e 6d 7e 24 3f 07 30 6e 3f 05 ab 6b 3d
       0.16433568 0.6425541 0.93042034 0.057536144
0002c0 4a 1c dd be a2 61 0a 3e 7d de 5e be d0 d8 3a be
       -0.43185645 0.13513806 -0.2176456 -0.1824677
0002d0 b2 9a 9c be 0b c2 1f be 44 76 6b 3e 08 4b ca 3e
       -0.30586773 -0.15601365 0.22994334 0.3951037
0002e0 7d a9 14 3e 0c a8 ed bd 3a e0 58 3d 92 d3 d4 bd
       0.1451778 -0.11604318 0.052948214 -0.10391916
0002f0 62 7e 4d be ae 85 98 bd 25 05 f4 bd e0 b0 dd 3e
       -0.20067742 -0.074473724 -0.11915044 0.43299007
000300 ff 24 4f 3e c6 bb 90 be 6a 76 00 3e e4 f8 07 3f
       0.20228957 -0.2826826 0.12545171 0.5311415
000310 85 7e f7 be 1f b5 4a bf 2b ca ff be bc e0 6c 3e
       -0.48338714 -0.7918262 -0.4995893 0.23132604
000320 3c 85 f3 3c b4 e8 4c 3e 0b f5 0d 3e be 5b 47 bf
       0.029726617 0.20010644 0.13863008 -0.7787436
000330 d2 26 d5 be d2 9a 35 3e 7b 13 50 be b4 b2 55 be
       -0.4163118 0.1773484 -0.20319931 -0.20868951
000340 8e db 7e be 91 7b cd be 0b 65 ea 3c a4 bb 22 bb
       -0.24888441 -0.40133336 0.028612634 -0.002483108
000350 ec 55 bb 3d 2a 77 a2 3d 01 04 80 3c 09 9a 93 bd
       0.09147248 0.07932885 0.01562691 -0.07207114
000360 53 c3 19 be 70 e5 26 be fa 64 c2 bc 99 d6 c8 3e
       -0.15015917 -0.16298461 -0.02372979 0.39226225
000370 3a ac 43 3f c1 c2 6f be fa 01 01 bd e0 e1 98 be
       0.7643467 -0.23414136 -0.031496026 -0.2985983
000380 9e 98 d8 be c1 7b b8 bd d3 c4 16 be 73 0c 29 bf
       -0.42303938 -0.09007979 -0.1472352 -0.6603462
000390 d8 0a 23 bf 53 45 35 3e a0 5a 1c be 71 47 f8 be
       -0.6368842 0.17702226 -0.15268946 -0.48492005
0003a0 15 fb f5 be e7 86 47 be fb c7 5b be 3f bd c4 be
       -0.48043123 -0.19485055 -0.21463005 -0.38425633
0003b0 dc bb c4 be 2b 33 33 be 85 db 28 be cd dc b2 be
       -0.38424575 -0.17499988 -0.1648999 -0.34934083
0003c0 9c 43 89 3d f0 0c 17 bd c0 a7 95 3e ae 6c 91 3e
       0.067023486 -0.036877573 0.29229546 0.2840323
0003d0 ee 0d 90 3e de 3c 1c 3e bb d6 1c be ea 18 eb 3d
       0.28135628 0.15257594 -0.15316288 0.11479361
0003e0 8c 66 fb 3d 7f c1 82 3c bb 8f 14 3f a5 d0 fa be
       0.12275419 0.015961407 0.58031815 -0.48987308
0003f0 21 bb 43 3e de c3 95 be 09 40 8f be 63 88 6a bf
       0.19114353 -0.29250997 -0.27978542 -0.9161436

fc1.bias f4 [250]
000000 d7 a0 d7 3e b8 aa ac be 6e 8c d5 3e fc 5c 4c bd
       0.421149 -0.33723998 0.41708702 -0.049893364
000010 ee 56 34 3e 5a 29 db 3d df e0 6e bf ee 73 c9 be
       0.17611286 0.107012466 -0.93311876 -0.3934626
000020 db 7f 1a bf 47 08 c8 bd e3 96 d6 be fe 98 ef be
       -0.6035134 -0.09767204 -0.41911992 -0.4679641
000030 65 1a ad be 32 d0 73 3e 76 ce 2f 3e 18 e7 e5 3e
       -0.338092 0.23809889 0.17168602 0.44902873
000040 52 98 22 be 1a af 51 be 40 ec ee be a4 e5 0a be
       -0.15878418 -0.20476952 -0.4666462 -0.13564163
000050 7d 93 c6 be 9b ae 27 bd 27 4c 71 be 5d 8b c4 3d
       -0.387844 -0.040938 -0.23564206 0.09596894
000060 e3 aa 74 3e 67 3e d0 be 30 05 85 3f e5 e5 d5 3d
       0.23893313 -0.4067261 1.0392208 0.104442395
000070 2c ad 01 bf 15 61 8e 3d 83 ec d2 be 2f 56 3d be
       -0.50654864 0.06952111 -0.4119607 -0.18489908
000080 70 cf 41 be 2c 81 93 3e 8c fd 57 3f 2e 6d 9d 3e
       -0.18926787 0.28809488 0.84371257 0.3074736
000090 81 7a 20 3f f5 9b 1d bf 42 08 77 3e 36 92 d0 be
       0.62686926 -0.61566097 0.24124244 -0.4073655
0000a0 26 14 8b be 57 3d 90 bd 58 d3 04 bf 22 da 99 be
       -0.2716381 -0.0704295 -0.51884985 -0.30049235
0000b0 aa 5f cd 3e 57 29 9b 3e 66 d0 00 3f f6 25 9f bd
       0.40112048 0.30304977 0.5031799 -0.07770912
0000c0 73 31 18 bf 4b 56 f1 3c f0 29 a8 be 48 57 7d be
       -0.59450454 0.029460093 -0.32844496 -0.24740326
0000d0 ce 7e 22 3f c1 3d e4 3e dc 91 17 bf e7 3f a0 3d
       0.6347474 0.44578364 -0.5920694 0.078246884
0000e0 67 7a 3d 3e df 1d d3 be 93 58 f0 3d 1c ec 28 be
       0.18503724 -0.41233727 0.11735644 -0.16496319
0000f0 73 d9 0d bc 6a af 81 be 0b e2 16 bc a3 be 2f 3e
       -0.008657801 -0.25329143 -0.009209166 0.17162566
000100 df 1e 10 bf 59 49 1f bf 02 f8 8a be c2 16 42 bf
       -0.56297106 -0.62221295 -0.2714234 -0.75815976
000110 13 c0 2b 3f 7c 5f f0 be ec e6 15 be 89 7b 22 bd
       0.67089957 -0.4694785 -0.14638871 -0.039668594
000120 2c f7 9a 3e 4c 1a 56 bf a4 78 f3 be 0b 22 ba bd
       0.30266702 -0.83633876 -0.4755298 -0.090885244
000130 85 6c 8f 3e d7 14 d6 3e 31 e8 94 3e c9 b0 6d bf
       0.2801248 0.41812775 0.29083398 -0.9284788
000140 c5 d2 81 3f cc 49 a8 3e 8a 81 e4 3e 48 dd d3 3e
       1.0142447 0.32868803 0.4463008 0.41379762
000150 3d fb 88 3e d9 f4 79 3d be 58 18 bf 76 7e 46 be
       0.2675418 0.06102452 -0.5951041 -0.19384179
000160 fd df a0 be a7 3e 44 3e c5 37 d5 bd d4 08 cc 3e
       -0.3142089 0.19164525 -0.10411028 0.39850485
000170 1b e3 1a be 9b 00 80 3f 98 ad 3c be 63 7f 6a 3e
       -0.15125696 1.0000185 -0.18425596 0.22900157
000180 4a fb 8e be ca 35 24 bf c9 a9 95 be 7d 37 f9 3d
       -0.27926093 -0.64144576 -0.29231098 0.12168787
000190 a8 04 6a bd 27 fe 4a 3e cf 35 25 3c 56 97 ff 3d
       -0.057133347 0.19823514 0.01008363 0.12480037
0001a0 c0 2c 41 3e c5 19 1d be 21 f5 45 3f ba 33 da 3e
       0.18864727 -0.15341862 0.7732716 0.4261759
0001b0 6b 2d e8 bc 46 81 77 be 79 89 cf 3e 1d 9e 09 3f
       -0.02834197 -0.24170408 0.4053457 0.53756887
0001c0 73 2d d6 be 32 1b 36 3e 33 c5 87 bd 2a 0a bd 3e
       -0.4183155 0.17783812 -0.0662941 0.36921817
0001d0 e0 b3 c5 bc bd 25 b5 3e 07 c4 ba 3e bc 46 ad 3d
       -0.024133623 0.35380355 0.36477682 0.08460757
0001e0 b8 b0 0d bf 83 db 25 3f 29 26 c9 be e2 06 37 3f
       -0.55347776 0.64788073 -0.39286926 0.7149488
0001f0 3e 3d f1 3e 9d 0d 36 3e 12 29 24 be 4a eb 9e be
       0.47117037 0.1777863 -0.16031292 -0.31038886
000200 cd 89 29 3f af ed 2c 3f ec 0f cf 3e cc da 5f bf
       0.6622589 0.67550176 0.40441835 -0.8744323
000210 5d 92 72 3e 5b e0 9b 3e f1 9b 50 3e 71 dd 88 bd
       0.23688646 0.30444607 0.20371987 -0.066828616
000220 ba 32 ef 3e 6c 63 3c bf 1f 44 b1 3d 0e cc df 3e
       0.4671839 -0.73589206 0.08655571 0.4371037
000230 be aa b6 be 2e 7b 0e bf 36 3b 0e bf 45 0b 36 3e
       -0.3567714 -0.5565671 -0.555591 0.17777736
000240 4e 37 8b be b8 73 c1 be 78 1c 64 3d ac 9a b2 be
       -0.27190632 -0.377836 0.055691212 -0.3488363
000250 30 7e 53 3e 6a fb 60 3d 41 9e 03 3f 3a 66 41 be
       0.20653605 0.054927267 0.5141335 -0.18886653
000260 f2 f0 1c be cc 20 d6 3d 06 84 43 bf 0b f9 6a 3e
       -0.15326288 0.10455474 -0.76373327 0.22946565
000270 61 aa e3 be b3 21 db b9 2e 9d 5b bf 8a 12 35 be
       -0.44465926 -0.00041796043 -0.8578671 -0.17682853
000280 ef fd 82 be 0c 4c a6 be 9a 6b 11 3e 8d 39 d1 be
       -0.2558436 -0.32479894 0.14201203 -0.4086422
000290 ff 05 92 bf d3 ff 94 be 38 32 2c 3f 5b 9f 9b 3e
       -1.140808 -0.29101428 0.6726413 0.30395016
0002a0 e8 2f b0 be 6d 9d 67 3e 4b 1b 06 3e f1 58 2d bf
       -0.3441155 0.22618647 0.13096349 -0.6771384
0002b0 5d 8b f2 3e 5a 15 fd 3d 06 f2 e7 bd f2 a8 4a 3e
       0.4737195 0.12357588 -0.11325459 0.1979101
0002c0 80 32 87 3d 92 b0 c9 3e a1 9e 36 bf d2 0d c9 3d
       0.06601429 0.39392525 -0.713358 0.09817089
0002d0 ea 29 8f 3d 88 d4 12 3f bd b5 6e be 6f ad 91 3d
       0.06990416 0.57355547 -0.23311515 0.07113158
0002e0 3c 2b 0b 3f 7a 97 8f bd 63 79 65 3e 58 ff d3 be
       0.54362845 -0.07011314 0.22409587 -0.4140575
0002f0 4e 13 43 3c 4d 09 85 3e 0e f0 02 be cd 92 1a be
       0.011906458 0.25983658 -0.12786886 -0.15095063
000300 82 b5 21 bf c3 b3 8e bf 32 78 97 be 7f 10 fb be
       -0.63167584 -1.1148609 -0.2958389 -0.49036023
000310 0b 9d c0 3e da 21 46 bd b4 67 46 3f 86 80 21 3f
       0.37619814 -0.048372127 0.7750199 0.63086736
000320 d4 36 09 3e e1 d2 b6 be 6a d6 2a bf 55 2d 89 be
       0.13399822 -0.35707763 -0.6673342 -0.26792398
000330 e0 35 8a 3e fb 25 2c bf 9e 70 96 be 88 52 94 3e
       0.26994228 -0.67245454 -0.29382795 0.28969216
000340 c4 31 fe be 7f 75 8c 3e 5e 7d f1 bd db 37 ae bd
       -0.49647343 0.27433392 -0.1179149 -0.08506747
000350 99 75 db 3e 5c 20 9e be 16 24 d9 be 80 dd 51 bb
       0.42863157 -0.30884063 -0.42410344 -0.0032022893
000360 28 67 89 be cb 14 01 bf ad f4 b9 be 92 e4 5b 3d
       -0.26836514 -0.5042235 -0.36319485 0.05368478
000370 18 a6 cb 3d a8 fe ea be cb 76 9c 3e c9 a9 0c be
       0.09943789 -0.45897412 0.30559382 -0.13736643
000380 8b 37 92 3e 02 b5 0e 3d 41 2b d5 3d f3 f6 1d be
       0.28558 0.03484059 0.10408641 -0.15426235
000390 63 ec 2c 3f f9 8f 1b bf 6e 6f 2f 3f 86 0e 82 3e
       0.675482 -0.6076656 0.68529403 0.25401706
0003a0 cb ac ae 3c af 32 91 3d 14 52 22 3f 36 00 7a bc
       0.021322628 0.07089745 0.6340649 -0.015258839
0003b0 ef 82 a2 be 91 83 be 3e 11 34 d8 3d bb 56 0e be
       -0.3174052 0.37209752 0.10556806 -0.13900273
0003c0 a4 a1 d4 3d 0f 73 23 be fc 76 16 bf 22 63 11 bf
       0.10382393 -0.1596186 -0.58775306 -0.5679189
0003d0 d4 da b7 3d 2f 6a 0d 3e 1e 0b c8 bc 8d 9f 27 3e
       0.08977285 0.13810037 -0.024419364 0.16369458
0003e0 64 f2 20 3f 38 18 0a 3f
       0.6286986 0.53943205

fc2.weight f4 [10, 250]
000000 89 7a 98 3f 26 3f cd bf 3d 96 11 3e a6 f2 5b c0
       1.1912395 -1.6034896 0.14217468 -3.436685
000010 74 7c 8f be 38 16 8b bf 91 bb c3 be 48 42 b3 be
       -0.28024638 -1.0866156 -0.3822904 -0.35011506
000020 7b d6 fc bf 1b 82 2d c0 f3 b2 5b 3f 1b 74 06 bf
       -1.9752954 -2.711066 0.8581993 -0.5252091
000030 62 3a 8b c0 1c 1b 37 3f 30 c5 e4 3e b0 69 e4 be
       -4.350877 0.7152574 0.44681692 -0.44611883
000040 7c e3 aa 3f 8b e0 81 bf ac 16 ab 3f 24 59 c9 3d
       1.3350673 -1.014665 1.3366294 0.09831455
000050 e6 da c8 bf 6e 36 8e bf 95 e8 70 be 0b 63 b5 3f
       -1.5691803 -1.1110361 -0.23526223 1.417085
000060 68 e4 0a 3e 51 a1 07 bf 00 cf 9e be a7 a5 86 bf
       0.13563693 -0.52980524 -0.31017303 -1.0519303
000070 83 94 c2 3f 01 03 b1 bf 39 7d 26 3e 61 82 0c 3e
       1.5201572 -1.3829042 0.16258706 0.1372161
000080 38 d2 06 3f b2 8a 90 3f cc 72 cd bc 53 3a 04 bf
       0.5266452 1.1292326 -0.025079153 -0.51651496
000090 97 3c 1d bf e9 ab 76 3f f6 f8 2f bd 38 2c a4 bf
       -0.6142058 0.96356064 -0.042962037 -1.2825994
0000a0 29 5e 8a be 1e be 81 3f 2a 6d b3 bf 0d 7d 47 bf
       -0.27024963 1.0136144 -1.4017689 -0.7792519
0000b0 7d 35 1d bf bd a8 9d be 60 0a e9 3e 8d a1 1a 3f
       -0.6140974 -0.307928 0.45515728 0.60402757
0000c0 c5 0e 34 c0 6b c6 16 bf 8b 54 b5 3e a4 5d 68 be
       -2.8134015 -0.5889651 0.35416064 -0.22691971
0000d0 d0 03 fd 3c 2f 05 50 3e 54 47 01 c0 ae 2f 32 c0
       0.030885607 0.20314477 -2.0199785 -2.7841601
0000e0 61 17 94 3e 41 88 2f bf b0 e0 31 c0 08 20 91 bf
       0.28924087 -0.6856728 -2.7793388 -1.13379
0000f0 ee 8c 6c be db e6 4d 3c 54 a8 e0 3e bd 18 da 3e
       -0.23100635 0.012567247 0.43878424 0.42597
000100 68 5f 31 3d c6 4f d7 bd 2c 57 18 3d 5a b1 6c 3e
       0.043303877 -0.105132625 0.03719251 0.23114529
000110 1c 79 94 bf 73 dc 1a be 7d d9 71 be 53 13 2d 3e
       -1.159946 -0.15123157 -0.23618121 0.16901903
000120 02 47 6c bf ad 08 94 3e 74 44 41 3d 97 ef 08 be
       -0.9229585 0.2891287 0.047184423 -0.13372646
000130 3c af 4f 3f e5 89 22 bf 5b b1 09 3e 17 41 07 c0
       0.8112676 -0.6349166 0.13446562 -2.1133478
000140 b8 ca 50 3f 40 27 35 3e 0d 6e 3e be 13 b4 2f 3d
       0.81559324 0.17690754 -0.18596669 0.04289634
000150 f5 10 18 3f f4 c1 c1 3c 9d 49 41 bf 55 b0 62 bf
       0.59400874 0.023652054 -0.7550295 -0.8855031
000160 69 95 2f bf ab 23 b0 3f 32 5c 59 bf d6 62 55 bd
       -0.68587357 1.3760885 -0.84906304 -0.05209621
000170 b4 c9 51 3f ef 5d 42 3e 57 d3 08 3f 69 d6 e5 be
       0.819484 0.18981145 0.5344748 -0.44890144
000180 2b 18 a5 bf 3f 47 a9 3f 51 57 0d 3f 75 fc 32 bf
       -1.2898 1.3224868 0.5521136 -0.6991647
000190 61 66 7a 3e 1e 1f 44 bf cb 23 fc 3f f0 25 e8 be
       0.24453117 -0.7660998 1.9698423 -0.45341444
0001a0 48 f3 b1 3f 5d aa 96 be ce 45 1c bf cb ca b1 3f
       1.3902369 -0.29426852 -0.61044014 1.3890013
0001b0 49 29 00 c0 cc 58 62 c0 53 14 f6 3f 36 73 75 3e
       -2.0025198 -3.5366697 1.9224952 0.2396973
0001c0 04 0a 2c 3f b1 b2 9d 3f 87 0a 76 be c6 fb b1 3e
       0.6720278 1.2320157 -0.24027453 0.347624
0001d0 0c 2a 28 c0 6d ce f1 3e b5 df 75 3f 98 e6 4d bf
       -2.6275663 0.47227803 0.96044475 -0.80429983
0001e0 3a 62 49 be d1 74 b7 3f b6 1e 25 c0 0b 25 fd 3e
       -0.19666377 1.4332525 -2.5799994 0.49442324
0001f0 83 44 0a 40 d2 14 87 3d aa bf 7a bd cd 39 3d c0
       2.1604316 0.06595768 -0.06121794 -2.9566529
000200 f1 a6 8c be a5 a5 e6 3e ad df 8d bf d6 43 d2 be
       -0.27471116 0.45048252 -1.1083885 -0.4106738
000210 d4 ee 00 40 28 01 1e c0 fc 54 30 40 53 2a 3a c0
       2.014577 -2.4688206 2.755187 -2.9088333
000220 66 0c b0 3e 98 4c fb bd 8d bb 3a 3f dd 61 1d 3f
       0.3438446 -0.122704685 0.7294243 0.6147745
000230 a4 c9 f1 3c 63 f9 8b c0 7e e8 83 3e 75 10 a6 bf
       0.029515095 -4.3741927 0.25763315 -1.2973772
000240 76 8d ed 3e a5 b1 af 3e b2 40 f6 3f 48 94 9c bc
       0.4639699 0.3431522 1.9238493 -0.019113675
000250 c6 e8 93 3e 01 58 1f 3f f2 82 ed be 34 cf 6e 3e
       0.2888853 0.6224366 -0.46388966 0.23321229
000260 a6 d3 08 bf b6 27 7e bd 53 42 87 3e 71 22 be be
       -0.5344795 -0.06204959 0.2641779 -0.37135652
000270 8d 9c 5c bf 2c 74 b6 be ee 79 35 40 c8 32 d8 bf
       -0.8617638 -0.35635507 2.835567 -1.6890497
000280 19 02 e3 3f 1a 59 4e c0 bb 6b 6d bf 13 8a 81 bf
       1.7735015 -3.2241883 -0.9274251 -1.0120262
000290 4b ca 4c 3f 5c 75 81 bf 01 b5 31 bf 07 36 48 be
       0.79996175 -1.011394 -0.69416815 -0.1955186
0002a0 95 00 41 be f9 43 11 be e2 68 0a bf 5c 7a a5 bd
       -0.18847878 -0.14186086 -0.5406629 -0.08079979
0002b0 5b b6 35 40 d4 dc 3b bf cd 08 09 3f 4e 59 3e bf
       2.839255 -0.7338383 0.53529054 -0.7435502
0002c0 ee 6e 08 bf 52 be a9 be 01 67 8c c0 fd db d9 3e
       -0.53294265 -0.33153015 -4.3875737 0.4255065
0002d0 35 89 2a 40 77 71 19 bf 83 c5 50 40 11 f9 41 3f
       2.6646245 -0.5993876 3.2620552 0.7577067
0002e0 b6 9e 67 bd d4 2f dc 3e 9d 71 21 be 63 48 37 3e
       -0.056547843 0.4300524 -0.15765996 0.17898707
0002f0 a4 15 d6 3e 63 1d c3 bf 6a 7b a5 bd b5 5e 5c bf
       0.41813385 -1.5243343 -0.0808018 -0.8608201
000300 6c c9 60 c0 2c 73 5c be 29 f5 82 bf c6 9b 57 3e
       -3.5122938 -0.2152831 -1.0231067 0.21055517
000310 6f 3b cd 3e 2a 60 25 3f 28 43 e6 bd 41 6d 88 3f
       0.40084407 0.6459986 -0.11243278 1.0658342
000320 e2 70 83 bc f2 d3 3f 3e cc 6f 90 bf 26 0a 1c 3e
       -0.016045038 0.18733194 -1.1284118 0.15238246
000330 da d6 6d be 29 0b b5 3e 50 dd 23 3e 4c e6 0f c0
       -0.2322649 0.35360077 0.16002393 -2.2484312
000340 3d 0c 14 40 f6 f5 2f bc 52 28 9f 3f 56 59 6c c0
       2.313247 -0.010739794 1.243418 -3.6929526
000350 21 0f 22 be 77 7d df bf ac 14 21 3f 24 41 72 be
       -0.15826084 -1.7460164 0.6292217 -0.23657662
000360 2c 36 83 c0 01 a6 c9 3f 3d 2c 28 bf ff 2e 7d bf
       -4.100363 1.5753785 -0.656925 -0.98899835
000370 e2 2d 53 3d c4 f4 f6 bf 3a f0 cf 3f 70 55 06 bf
       0.05155743 -1.9293447 1.6245186 -0.5247412
000380 d1 fb e6 3c 39 08 37 3e 7a 35 ae 3e c8 ba aa bf
       0.028196247 0.1787423 0.34025174 -1.3338251
000390 07 10 aa bf 0f 42 81 bf 6c 90 46 3f 86 74 15 3f
       -1.3286141 -1.0098284 0.7756412 0.58380926
0003a0 fc 20 52 3f 0b fa 8e 3d 20 48 6d bf dc 39 74 3e
       0.8208158 0.06981286 -0.9268818 0.23850197
0003b0 4a 8c 4b c0 22 4d 92 be 15 2e 9d be 28 c1 09 bf
       -3.1804376 -0.28574473 -0.3069922 -0.5381036
0003c0 8c f8 51 c0 16 30 68 be d8 fe 1b be ab 3a 42 bf
       -3.280795 -0.22674593 -0.15233934 -0.7587077
0003d0 36 a6 74 3f a4 8e 98 bf c5 6e 3f be 15 d6 30 bd
       0.9556612 -1.191853 -0.18694599 -0.043172915
0003e0 d2 4a b2 3e 6a 4b 2d 3f 84 11 02 40 cc 74 b3 3f
       0.34822708 0.676932 2.032319 1.4020019
0003f0 ba 24 8d be 50 e2 87 3d b4 5e cf bf f7 6c 47 bf
       -0.27567083 0.066349626 -1.6200776 -0.7790064

fc2.bias f4 [10]
000000 65 94 26 bd 9e 9e 95 3d 64 30 4b be 03 fe 53 bc
       -0.040668864 0.073056445 -0.19842678 -0.012938979
000010 75 88 37 3d 4f 42 9b bb a4 f6 cb bd 89 db 80 3b
       0.04480787 -0.004738129 -0.09959152 0.0039324206
000020 92 bf 50 bd 70 d0 8c bd
       -0.050963946 -0.06875694
