bagging/parameters/parameters_2net4bagging.pth (torch, 799191 bytes, 6 tensors)

fc1.weight f4 [200, 784]
0	0xbce31538	-0.027720079
1	0xbc0d6b65	-0.008631562
2	0xbc34a053	-0.011024552
3	0x3c5e7258	0.013577066
4	0x3ce180e3	0.027527278
5	0x3d174445	0.03693034
6	0x3c938a32	0.018010233
7	0x3d03f0d7	0.032212105
8	0xbe07c1de	-0.13257548
9	0x3d0d8352	0.034549065
10	0xbeded980	-0.43525314
11	0xbf2337da	-0.637571
12	0xbf24319c	-0.641382
13	0xbeb4a451	-0.35281613
14	0xbe20590a	-0.15658966
15	0xbea809e6	-0.32820052
16	0xbf13f69c	-0.5779817
17	0xbecc3715	-0.39885774
18	0xbe5a17ce	-0.21298143
19	0x3e3bae86	0.18328294
20	0xbeb3dcb4	-0.3512932
21	0xbee5b38a	-0.4486354
22	0x3cb0da25	0.021588394
23	0x3df9a766	0.12190132
24	0x3d58c6b4	0.052923873
25	0xbd74c5e6	-0.059759043
26	0xbd0ab288	-0.033861667
27	0xbccb80c1	-0.024841668
28	0x3c7d48d3	0.015459257
29	0xbb9afab7	-0.0047295946
30	0xbce8395c	-0.028347664
31	0xba5a4493	-0.00083262584
32	0x3e964388	0.29348397
33	0x3e825e16	0.25462407
34	0x3ce343a2	0.02774221
35	0xbe983a4a	-0.2973197
36	0xbc9e5e47	-0.019332064
37	0x3d8533b5	0.06504003
38	0xbf36ab5d	-0.7135523
39	0xbee8a0f0	-0.45435286
40	0xbe23d398	-0.15998685
41	0xbdfd3ff8	-0.12365717
42	0xbf6574f6	-0.89631593
43	0xbdde9a93	-0.108693264
44	0xbf690a60	-0.91031456
45	0xbfc31293	-1.5240043
46	0xbf9a4276	-1.2051532
47	0xbf1434ca	-0.5789305
48	0xbe882247	-0.26588652
49	0xbf07272b	-0.5279414
50	0xbec8cd43	-0.39219102
51	0xbdbe8f14	-0.09304634
52	0xbded24a9	-0.11579258
53	0xbd3737b9	-0.044730876
54	0xbe89d8ce	-0.2692322
55	0x3e0534fb	0.13008492
56	0x3b5f13dc	0.0034038937
57	0xbcc7809e	-0.024353322
58	0x3c8978b0	0.016781181
59	0xbcac73ce	-0.021051314
60	0x3d898fe2	0.067168966
61	0x3f1290d8	0.57252264
62	0xbef977ef	-0.48724315
63	0xbf4269ba	-0.75942576
64	0xbe8ce848	-0.27520967
65	0xbf7999b5	-0.97500163
66	0xbf884f54	-1.0649209
67	0xbf0d62ae	-0.552287
68	0xbf405e25	-0.75143653
69	0xbfba799d	-1.4568363
70	0xbf9857be	-1.1901777
71	0xbfc05529	-1.5025989
72	0xbfa4abc9	-1.2864925
73	0xbf4bc34c	-0.79594874
74	0x3d8ae658	0.06782216
75	0x3d9839c8	0.07432896
76	0xbef77813	-0.48333797
77	0xbee69e0f	-0.45042464
78	0x3d59f5ae	0.053212814
79	0x3e0ba409	0.13636793
80	0x3eafc59c	0.3433045
81	0xbeeb0c5d	-0.4590787
82	0x3e1106c0	0.14162731
83	0x3e740910	0.23831582
84	0xbc0568e5	-0.008142685
85	0x3e493db4	0.19652444
86	0x3ebb5b71	0.36593202
87	0xbeefb461	-0.46817306
88	0xbe7e76af	-0.24849962
89	0xbe92e8c0	-0.286932
90	0x3da9842d	0.08277164
91	0xbd8da2c4	-0.06915811
92	0xbf29a46f	-0.6626653
93	0xbf90242e	-1.1261041
94	0xbfa3c22f	-1.2793635
95	0xbf728bb2	-0.9474441
96	0xbf62fc47	-0.88666195
97	0xbf5e7883	-0.86902636
98	0xbf19b57b	-0.6004254
99	0xbf21e359	-0.6323753
100	0xbf03aaec	-0.5143268
101	0xbec489b6	-0.38386315
102	0x3c4436ff	0.011976003
103	0x3db09304	0.08621791
104	0xbdab80ec	-0.08374199
105	0xbf5dd91d	-0.86659414
106	0xbf1963cf	-0.5991792
107	0xbe525c0a	-0.20542923
108	0x3dee5389	0.11637027
109	0xbeb8e05f	-0.36108682
110	0xbef60b4e	-0.480555
111	0x3eb1e1cb	0.3474258
112	0x3ace24b7	0.0015727495
113	0xbe435f1b	-0.19079249
114	0xbca225e7	-0.019793464
115	0x3e56693b	0.2093858
116	0xbe8b092b	-0.27155432
117	0xbe9992fd	-0.29994956
118	0xbcc095ed	-0.02350899
119	0x3e03eba1	0.12882854
120	0xbe637da2	-0.22215894
121	0xbe11d1e0	-0.14240217
122	0xbe0cea56	-0.13761267
123	0xbd398d8d	-0.04530101
124	0xbc62e4c8	-0.013848491
125	0xbdc8a1b7	-0.0979647
126	0xbf07eb99	-0.5309387
127	0xbf1364a2	-0.5757543
128	0xbee02350	-0.4377694
129	0xbe6a9a59	-0.22910441
130	0xbe12a546	-0.1432086
131	0x3e6f7e1c	0.2338795
132	0xbe4a1c2f	-0.19737314
133	0xbe00f0bc	-0.12591833
134	0xbf1031aa	-0.5632578
135	0xbe2edfbb	-0.17077534
136	0xbd0879d6	-0.033319317
137	0xbeaa9ed4	-0.333243
138	0xbe5f0988	-0.2178098
139	0xbe8887e3	-0.26666173
140	0xbedecb12	-0.43514305
141	0xbea44412	-0.32083184
142	0x3e983b55	0.29732767
143	0x3e49ba73	0.19700031
144	0x3d8194ff	0.06327247
145	0xbce548b7	-0.027988775
146	0x3e328a8f	0.17435668
147	0x3e6b9744	0.23006922
148	0xbda3d1fd	-0.079990365
149	0x3db2a355	0.08722559
150	0xbdce2c1c	-0.10067007
151	0xbc3bdecd	-0.011466694
152	0xbd87fc06	-0.066398665
153	0x3cfe5f2c	0.03105124
154	0xbe3dbc6b	-0.18528907
155	0xbe62cd0e	-0.22148535
156	0xbe8775d9	-0.26457098
157	0xbe908f9c	-0.28234565
158	0xbcdec593	-0.02719382
159	0x3cc30f95	0.023811141
160	0xbd4e7fd7	-0.050414886
161	0xbda5cd56	-0.08095805
162	0x3dff8cff	0.12478065
163	0xbcd04d14	-0.025427379
164	0xbcd107fa	-0.025516499
165	0xbed3cbfa	-0.4136656
166	0x3d2b39c3	0.041803133
167	0xbe9cc634	-0.30619967
168	0xbebbcbfb	-0.36679062
169	0x3c2ea152	0.010658579
170	0xbe219825	-0.15780695
171	0xbe877926	-0.26459616
172	0xbe98ba16	-0.29829472
173	0xbe925ffa	-0.2858885
174	0x3dc48d63	0.0959728
175	0xbe22dbc5	-0.15904148
176	0xbd99bfbb	-0.07507273
177	0x3d9022ba	0.070378736
178	0x3d978703	0.07398798
179	0x3dd0bebc	0.1019263
180	0xbe156995	-0.14591058
181	0xbe534238	-0.20630729
182	0xbdbb9c72	-0.09160699
183	0xbe4228d3	-0.18960886
184	0xbe329ed1	-0.17443396
185	0xbe83a64f	-0.2571282
186	0xbdd8f563	-0.10593679
187	0xbe4f3de9	-0.2023846
188	0xbe493fa2	-0.1965318
189	0xbe12d9a6	-0.14340839
190	0x3d717326	0.058947705
191	0x3e6fdb79	0.23423566
192	0xbdcba59d	-0.099436976
193	0xbea08d85	-0.3135797
194	0xbf4375b9	-0.76351506
195	0xbebdc33d	-0.37063017
196	0xbf01744e	-0.5056809
197	0xbd83a43b	-0.06427809
198	0x3e69a010	0.22814965
199	0x3e290eaf	0.16509508
200	0xbd811344	-0.06302503
201	0xbe066472	-0.13124254
202	0xbd1ae040	-0.037811518
203	0x3d0e1665	0.034689326
204	0xbd81b9f4	-0.06334296
205	0x3ddb3a79	0.10704512
206	0xbb2e9d4b	-0.0026644047
207	0xbd126b26	-0.035746716
208	0xbe4686b8	-0.19387329
209	0xbe4fb3ad	-0.20283385
210	0xbdaf88f8	-0.085710466
211	0x3c1a1035	0.009403278
212	0x3d0e4ca2	0.03474105
213	0xbc236d30	-0.009974763
214	0xbddec000	-0.10876465
215	0xbdbac85d	-0.091202475
216	0xbd58549e	-0.052815072
217	0xbe349394	-0.17634422
218	0xbcd0e211	-0.025498422
219	0x3e193a6c	0.14963692
220	0x3e40d3a3	0.18830733
221	0x3e2e4d4c	0.17021674
222	0xbe90af90	-0.28258944
223	0xbcc080f2	-0.023498986
224	0x3ce721da	0.028214384
225	0xbc160812	-0.009157198
226	0xbd2db9a0	-0.042413354
227	0x3e963b1d	0.29341975
228	0xbdf87035	-0.12130777
229	0x3d57c868	0.052681357
230	0x3e1a6944	0.15079218
231	0x3e0494bb	0.12947361
232	0x3d317a09	0.043329272
233	0x3d98a9a1	0.07454229
234	0xbd4ba3a8	-0.04971662
235	0xbdb99a12	-0.0906259
236	0xbe475fb6	-0.19470105
237	0xbd7c1009	-0.06153873
238	0x3debdf60	0.11517215
239	0x3e34e81b	0.17666666
240	0xbcacb80c	-0.021083854
241	0x3caec1dc	0.021332674
242	0xbd8386b9	-0.06422181
243	0x3d46122f	0.048357185
244	0x3d511674	0.051046804
245	0xbd0d4edf	-0.034499045
246	0x3d582f0a	0.052779235
247	0x3d935e34	0.07195702
248	0xbda3201b	-0.07965108
249	0xbc232f92	-0.009960072
250	0xbf0b3131	-0.54371935
251	0xbe5e3ac7	-0.2170211
252	0xbf06b0be	-0.5261344
253	0xbf196f7d	-0.5993574
254	0xbeb61bab	-0.35567984
255	0x3e591072	0.2119768

fc1.bias f4 [200]
0	0xbc7c82b3	-0.0154120205
1	0x3eafb009	0.34313992
2	0x3d8ae203	0.067813896
3	0xbdf95fd7	-0.12176483
4	0xbe943bba	-0.28951818
5	0xbd717532	-0.058949657
6	0x3d80a679	0.06281752
7	0xbe298ae5	-0.1655689
8	0x3d9e2ac0	0.07722998
9	0xbe6895aa	-0.22713342
10	0x3dde0be9	0.108421154
11	0xbd65e75d	-0.05612885
12	0x3e2f2422	0.17103627
13	0xbe48bf4a	-0.19604221
14	0xbddcd89c	-0.107835025
15	0xbe8edfd5	-0.27905145
16	0xbe92f630	-0.2870345
17	0xbe7a6cab	-0.24455516
18	0xbe11e49b	-0.14247362
19	0xbea0e1d8	-0.31422305
20	0x3dd11941	0.10209895
21	0x3b59c611	0.003322963
22	0xbe243eca	-0.16039577
23	0x3e2d96fc	0.16952127
24	0x3ded88dc	0.115983695
25	0x3cf27c31	0.029600235
26	0x3e75aa41	0.23990728
27	0xbcb1f117	-0.021721406
28	0x3e3638fa	0.17795172
29	0xbd968b23	-0.07350757
30	0x3c92d2ad	0.017922724
31	0x3e973521	0.29532722
32	0xbe2cd2dc	-0.16877311
33	0xbd85c72c	-0.0653213
34	0x3e392c34	0.18083268
35	0x3c2cd660	0.010549158
36	0xbe2968b2	-0.16543844
37	0xbe325489	-0.1741506
38	0xbcefc00a	-0.029266376
39	0x3c60d67f	0.013723015
40	0xbdbb5845	-0.091476955
41	0xbcf062e1	-0.029344024
42	0xbd97aea8	-0.0740636
43	0xbcfeeb99	-0.031118201
44	0xbd98599d	-0.074389674
45	0xbd8cac49	-0.06868798
46	0xbea17514	-0.31534636
47	0xbe0a7f6e	-0.13525173
48	0x3d87f9ec	0.06639466
49	0xbe114fe4	-0.14190632
50	0xbd61b3d6	-0.055103146
51	0x3cc88e24	0.02448184
52	0x3b098868	0.0020985845
53	0xbc3fcc5a	-0.011706436
54	0xbe9192e6	-0.28432387
55	0x3e3bef58	0.18353021
56	0xbdf48ab2	-0.119405165
57	0xbe840986	-0.25788516
58	0x3d6e30ad	0.05815189
59	0xbdd711d0	-0.10501444
60	0x3e0e0cdd	0.13872094
61	0xbdc4f8a6	-0.096177384
62	0xbcd30ee1	-0.02576393
63	0x3e32b0e8	0.17450297
64	0xbe98f264	-0.2987243
65	0x3da8b68d	0.08237944
66	0xbea75384	-0.32680905
67	0xbde04989	-0.10951526
68	0xbea516c2	-0.32243925
69	0xbe9a77f0	-0.3016963
70	0xbe713a05	-0.23557289
71	0x3d6de499	0.058079336
72	0xbd84d7c6	-0.06486468
73	0xbe3830ea	-0.17987409
74	0xbe3e68e8	-0.18594706
75	0xbcb093c3	-0.021554833
76	0x3d7f7abd	0.06237291
77	0x3e9df6e8	0.30852437
78	0x3d06b353	0.03288586
79	0xbc913d23	-0.017729348
80	0xbe0dbd72	-0.13841799
81	0x3d61058f	0.05493694
82	0xbe0e6f71	-0.13909699
83	0xbe1f9610	-0.15584588
84	0x3e9009f9	0.2813261
85	0x3dd3cc26	0.103416726
86	0xbd41748b	-0.047230285
87	0x3c555518	0.013020776
88	0xbe77dd3a	-0.24205485
89	0xbc1dafec	-0.009624463
90	0xbec9339f	-0.39297196
91	0xbe4a2bf0	-0.19743323
92	0x3e3c557f	0.18391989
93	0xbe38e9a1	-0.18057872
94	0xbd67d9b3	-0.0566041
95	0x3d97e60a	0.07416923
96	0x3dc3eba6	0.09566431
97	0xbe6f64da	-0.23378316
98	0x3c7c831c	0.015412118
99	0x3e2debca	0.16984478
100	0xbea0ec88	-0.3143046
101	0xbe0cdc44	-0.137559
102	0xbdd38cc5	-0.10329584
103	0xbd6160db	-0.05502401
104	0xbcbc5976	-0.022991877
105	0x3e3831ff	0.17987822
106	0x3e0a0409	0.13478102
107	0xbbe269d5	-0.006909589
108	0xbd980929	-0.07423622
109	0xbbc91eb1	-0.006137692
110	0xbe31e5c1	-0.173728
111	0x3c8bd08b	0.017067214
112	0x3edbf16e	0.42957634
113	0xbe8c31e5	-0.27381817
114	0x3d96463c	0.07337615
115	0xbe96dbbf	-0.29464528
116	0x3dae7b2f	0.08519589
117	0xbdafc011	-0.08581556
118	0xbcf2b587	-0.029627575
119	0xbe882c8e	-0.26596493
120	0xbc936701	-0.017993452
121	0xbe279f14	-0.16369277
122	0xbd9485bb	-0.072520696
123	0x3e74843e	0.23878571
124	0xbd06331a	-0.032763578
125	0xbec5a7ba	-0.38604528
126	0xbc52734c	-0.012844872
127	0x3dab2a80	0.083577156
128	0x3e09cb05	0.13456352
129	0xbe3bebe7	-0.18351708
130	0xbdedf6b1	-0.11619318
131	0xbdcb1e15	-0.09917847
132	0xbe38089a	-0.17972031
133	0x3ce226a3	0.027606314
134	0xbd2cc821	-0.042183045
135	0x3e2e89d6	0.17044768
136	0xbd40da5c	-0.047083244
137	0x3e5cd1a4	0.21564347
138	0x3d88954e	0.066691026
139	0x3e7a874a	0.24465671
140	0x3d02c683	0.031927597
141	0x3ed5b804	0.41741955
142	0xbd65ca6f	-0.05610126
143	0x3e8cfae6	0.2753517
144	0xbe4cb8e1	-0.199924
145	0x3dd0b468	0.1019066
146	0xbe786ab0	-0.24259448
147	0xbd1113c8	-0.035419255
148	0xbdb09300	-0.08621788
149	0x3d1071cf	0.035264786
150	0xbea2ce97	-0.3179824
151	0xbe0d2ca3	-0.13786559
152	0xbd3a2818	-0.045448393
153	0x3e813c38	0.25241256
154	0x3e2e16b4	0.17000848
155	0x3d0c6bbc	0.03428243
156	0xbe6f1ace	-0.23350069
157	0x3e56e12c	0.20984334
158	0x3e4dcc36	0.20097432
159	0xbcb03302	-0.021508697
160	0x3e8828d3	0.26593646
161	0x3c298bec	0.010348301
162	0xbe380a44	-0.17972666
163	0xbe42eb6a	-0.19035116
164	0xbe75cebb	-0.24004643
165	0xbe589ca1	-0.21153499
166	0x3c7a0f4e	0.015262438
167	0xbe16ec25	-0.1473852
168	0x3d9a6eb5	0.07540647
169	0x3e4beb1a	0.19913903
170	0xbe855e5a	-0.26048547
171	0xbe1b4176	-0.1516169
172	0xbd4504da	-0.04810033
173	0xbe37676d	-0.17910548
174	0xbe8d4632	-0.27592617
175	0xbbd07bdd	-0.006362422
176	0xbdf2219e	-0.11822818
177	0xbcb2db6b	-0.021833142
178	0x3e3ba407	0.1832429
179	0x3cc8094b	0.024418494
180	0xbe736c86	-0.23771867
181	0xbdbe3a4f	-0.09288465
182	0xbe05292e	-0.1300399
183	0xbe26e96b	-0.1629998
184	0x3cf0d1b2	0.029396866
185	0xbe178ff7	-0.14801012
186	0xbe672571	-0.22572877
187	0x3e750b19	0.23930015
188	0xbe81a6c3	-0.25322542
189	0xbe520f3b	-0.20513622
190	0x3d995dba	0.0748858
191	0x3d57b7e7	0.052665617
192	0x3ddfc5e0	0.109264135
193	0xbd13115f	-0.03590524
194	0xbde981b3	-0.11401691
195	0x3e3af45b	0.18257277
196	0xbe0a8b4d	-0.13529702
197	0xbe2f12f6	-0.17097077
198	0xbb71dd01	-0.003690541
199	0xbdaa3f9e	-0.08312915

fc2.weight f4 [200, 200]
0	0x3cfed5ac	0.031107746
1	0xbe0aebaf	-0.13566469
2	0xbcad6180	-0.021164656
3	0xbe663832	-0.22482374
4	0x3e14bc17	0.14524876
5	0xbe82108f	-0.25403258
6	0x3a8d1d60	0.0010766201
7	0xbee71c45	-0.45138755
8	0xbdf055d9	-0.11735124
9	0x3c2bc137	0.010483078
10	0x3db740d9	0.089479156
11	0x3f6325ea	0.8872973
12	0x3dadde9e	0.084897265
13	0x3f3f03f0	0.74615383
14	0x3f62f95a	0.8866173
15	0x3e88e89e	0.26739973
16	0xbe147898	-0.14499128
17	0xbf17a639	-0.5923801
18	0x3e6b3343	0.22968774
19	0xbd8adfb0	-0.06780946
20	0x3e038a53	0.12845735
21	0x3ea4cc09	0.32186916
22	0x3c5b7652	0.013394909
23	0x3f020a30	0.50796795
24	0xbea667c9	-0.32501057
25	0x3e77036c	0.24122399
26	0xbe69233a	-0.22767344
27	0x3d95dafc	0.073171586
28	0xbeac5022	-0.33654886
29	0x3e20d895	0.1570762
30	0x3ec4122c	0.38295114
31	0x3dad4944	0.0846124
32	0xbe2b4cf4	-0.16728574
33	0xbe765b88	-0.24058354
34	0x3dfe3e93	0.12414279
35	0xbe10ab95	-0.14127953
36	0xbf15f896	-0.5858244
37	0x3cd96660	0.026538074
38	0x3ea96181	0.33082202
39	0xbda88c6e	-0.0822991
40	0xbe859f13	-0.26097926
41	0x3f00ab13	0.5026104
42	0xb995d0e5	-0.00028575133
43	0xbe956957	-0.2918193
44	0xbd4c94e1	-0.04994667
45	0xbdb1508a	-0.0865794
46	0xbc22f22d	-0.0099454345
47	0x3b7458c9	0.0037284365
48	0x3d8628b9	0.06550736
49	0xbf52a86d	-0.8228825
50	0x3e92d678	0.28679252
51	0xbea9c0a8	-0.33154798
52	0x3d8db5bd	0.069194295
53	0x3d5fc411	0.054630343
54	0x3e86beb1	0.2631736
55	0xbea238fa	-0.31684095
56	0xbec2164e	-0.37907642
57	0xbe628361	-0.2212043
58	0xbf0c1904	-0.5472567
59	0x3c3078bf	0.010770976
60	0x3ea7eee1	0.32799438
61	0x3da24be0	0.07924628
62	0xbcd8f133	-0.0264822
63	0x3d218434	0.03943272
64	0xbe38ecae	-0.18059036
65	0x3e9fa57c	0.31180942
66	0xbe745743	-0.23861413
67	0xbebe2693	-0.37138805
68	0x3f06669b	0.52500314
69	0x3dc71523	0.097208284
70	0x3e8feef4	0.28111994
71	0xbd8b6b53	-0.0680758
72	0xbf198544	-0.5996897
73	0xbe18d26e	-0.14924023
74	0x3cb612a1	0.02222568
75	0x3d3cc204	0.046083465
76	0xbe67bf07	-0.22631465
77	0x3e34cd98	0.17656553
78	0xbe28f278	-0.16498744
79	0x3d83a803	0.0642853
80	0x3ed3dcaa	0.4137929
81	0xbe0cbd9d	-0.13744207
82	0xbee9acd2	-0.45639664
83	0xbd893fd8	-0.0670163
84	0xbd5173e4	-0.051135913
85	0x3d8e8774	0.069594294
86	0xbef549c7	-0.4790785
87	0xbc60c6b3	-0.013719249
88	0x3e21d820	0.15805101
89	0x3e8fde8a	0.2809947
90	0x3e04a62d	0.12954016
91	0x3ec59ff4	0.38598597
92	0x3e1c0521	0.15236332
93	0x3e428cfa	0.18999091
94	0x3e5cceb5	0.21563227
95	0x3d83d62d	0.06437335
96	0xbcb9cf23	-0.022681778
97	0x3d3958e0	0.045250773
98	0xbe38e8f2	-0.18057612
99	0x3e83de2c	0.2575544
100	0xbea06d47	-0.31333372
101	0x3e92b282	0.28651816
102	0xbdbfa730	-0.0935806
103	0x3d37b902	0.04485417
104	0x3bb994ce	0.005663491
105	0x3d33ef62	0.043929465
106	0x3e68336c	0.22675866
107	0x3e97be07	0.29637167
108	0x3ecc7efb	0.39940628
109	0x3d02596f	0.03182357
110	0xbde5837f	-0.112067215
111	0xbe60d800	-0.21957397
112	0xbebfaf4f	-0.37438437
113	0xbbaf4760	-0.0053490847
114	0xbbdc6223	-0.006725566
115	0x3d6a91b3	0.057267856
116	0xbd0984c0	-0.033573866
117	0x3e490a0e	0.19632742
118	0x3eaf9d53	0.34299716
119	0xbf8ab56b	-1.0836614
120	0x3f4b3bc4	0.7938807
121	0x3dd326a0	0.103101015
122	0xbdfdf2a7	-0.12399798
123	0x3d1205b2	0.035649963
124	0xbdad1b3a	-0.08452459
125	0xbf5d2c73	-0.8639595
126	0xbe049d56	-0.12950644
127	0x3e7c516b	0.24640433
128	0xbcd45173	-0.025917744
129	0x3e86e819	0.2634895
130	0x3dc9ab61	0.09847141
131	0x3e380ee4	0.1797443
132	0xbc55c5a4	-0.0130476095
133	0x3e760661	0.24025871
134	0xbf00d827	-0.5032982
135	0xbe449c17	-0.19200169
136	0x3dd6d165	0.104891576
137	0xbd4fa733	-0.050696563
138	0xbe83dd10	-0.25754595
139	0x3e237d0c	0.1596567
140	0xbdf21547	-0.118204646
141	0xbfb6466d	-1.4240242
142	0xbf08b3b1	-0.5339919
143	0xbe397651	-0.1811154
144	0x3e822d45	0.25425163
145	0x3c8f6e2e	0.017508592
146	0x3de1c7fc	0.11024472
147	0xbbf17b38	-0.007369425
148	0x3eee13ce	0.46499485
149	0xbdb7e167	-0.08978539
150	0xbda5d720	-0.080976725
151	0xbdcc2fba	-0.099700406
152	0xbdbb57a3	-0.09147575
153	0xbc19ed76	-0.009394994
154	0x3caa67d4	0.020801462
155	0xbe11889e	-0.14212272
156	0xbea73da0	-0.32664204
157	0xbf793750	-0.97350025
158	0x3ebceb7f	0.3689842
159	0xbed58e2a	-0.41710025
160	0xbd9c7d81	-0.076411255
161	0xbe44448d	-0.19166775
162	0x3cf4ba3b	0.029873958
163	0x3dd9ed5e	0.10640977
164	0x3e826da0	0.25474262
165	0x3c9f0952	0.019413624
166	0xbea562b6	-0.32301873
167	0x3e233740	0.15939045
168	0x3e8a3fcf	0.27001807
169	0xbe326dee	-0.17424747
170	0x3e39b860	0.1813674
171	0x3e2d6628	0.16933501
172	0x3f915c99	1.1356384
173	0xbeba3236	-0.36366433
174	0x3eab0e57	0.33409378
175	0xbee69c73	-0.45041236
176	0xbe98d901	-0.2985306
177	0x3e26b6f1	0.16280724
178	0x3ea33dbe	0.31883043
179	0xbe7e4458	-0.24830759
180	0x3f8fa236	1.1221378
181	0x3e812125	0.252206
182	0x3e82ab21	0.25521186
183	0x3d727bda	0.059200145
184	0xbd392301	-0.045199398
185	0x3ca6bfa6	0.020355057
186	0xbc43e1c0	-0.011955678
187	0x3eaf0460	0.34183025
188	0x3eea9d73	0.4582325
189	0xbb22a07b	-0.0024814892
190	0xbf07f081	-0.53101355
191	0xbb35daa8	-0.0027748737
192	0x3e4d8713	0.20071058
193	0xbd8eb8d3	-0.06968846
194	0x3e22bcc4	0.15892321
195	0x3cdee236	0.027207475
196	0xbf3b2a80	-0.73111725
197	0xbe8b8662	-0.27250963
198	0xbe0fe486	-0.14052019
199	0xbea6e7e1	-0.32598785
200	0x3e889b68	0.26681066
201	0xbe9c66b6	-0.30547112
202	0x3e234c5a	0.15947095
203	0x3e3e72b4	0.18598443
204	0x3c998cb1	0.018743845
205	0xbdc20d61	-0.09475208
206	0xbe1d8563	-0.15382914
207	0x3da80ea9	0.08205921
208	0xbe57cdb7	-0.21074568
209	0xbd8bcbfd	-0.06826017
210	0xbe288194	-0.1645568
211	0x3f04bcd9	0.5185066
212	0xbd234a54	-0.039865807
213	0x3e2de2f3	0.16981106
214	0x3d40fa09	0.047113452
215	0xbcf42c07	-0.02980615
216	0x3f141682	0.57846844
217	0xbccbfa84	-0.024899729
218	0xbeac79fd	-0.3368682
219	0x3d115ec0	0.03549075
220	0xbe41defa	-0.18932715
221	0x3ddd67d1	0.10810817
222	0x3e500d73	0.2031763
223	0x3e98e9c8	0.2986586
224	0x3b708925	0.0036702838
225	0xbdec8e84	-0.1155062
226	0x3e117f44	0.14208704
227	0x3f075e63	0.528784
228	0xbe080fbc	-0.13287252
229	0x3ea6fc44	0.32614338
230	0x3e89a3af	0.26882693
231	0x3e5d8e7a	0.21636382
232	0xbe370c21	-0.1787572
233	0x3f11574a	0.5677382
234	0xbe85423a	-0.2602709
235	0x3d3ed6a3	0.046591412
236	0xbec9006e	-0.3925814
237	0xbe504b35	-0.20341189
238	0xbeb2a3cb	-0.3489059
239	0x3f504687	0.81357616
240	0xbe529cc0	-0.20567608
241	0xbe24ff09	-0.16112913
242	0xbda906ff	-0.082532875
243	0xbe749a90	-0.23887086
244	0xbe95ce46	-0.29258937
245	0xbec6f6bd	-0.3886012
246	0xbcce6d02	-0.025198463
247	0x3e2b1797	0.16708218
248	0x3d148b9a	0.036265947
249	0x3f1cf68e	0.6131371
250	0xbed627b0	-0.41827154
251	0x3ebd5202	0.3697663
252	0xbd0c4af0	-0.034251153
253	0x3c9f64c7	0.019457234
254	0x3f079c16	0.52972543
255	0xbd4953b3	-0.049152087

fc2.bias f4 [200]
0	0x3da2eac1	0.07954932
1	0xbc849d6d	-0.016188348
2	0x3cda3937	0.02663861
3	0x3d463488	0.04838994
4	0xbce61528	-0.02808626
5	0xbbd6eb5b	-0.0065588183
6	0xbb1bbd99	-0.0023764132
7	0x3d2683e7	0.040653136
8	0xbd89abd9	-0.067222305
9	0xbb95664f	-0.0045593153
10	0xbd67b403	-0.056568157
11	0xbd91feb1	-0.07128657
12	0xbd7b4678	-0.0613465
13	0xbba3916e	-0.004991702
14	0x3d9e6ba3	0.07735374
15	0x3d807b44	0.06273511
16	0xbd9467ac	-0.07246336
17	0xbcb19d0d	-0.021681333
18	0x3d00e48a	0.03146795
19	0xbc4d7a1c	-0.01254132
20	0x3cde3e0e	0.0271292
21	0x3d2dfc68	0.04247704
22	0x3cea0293	0.02856568
23	0x3c91bd65	0.017790506
24	0x3c5412b4	0.012943912
25	0xbd3acc9d	-0.04560529
26	0x3c3c6eb1	0.011501
27	0x3bae123a	0.0053122314
28	0xbce4abee	-0.027914014
29	0xbd86f41d	-0.0658953
30	0xbc800794	-0.015628614
31	0xbdacca2a	-0.08436997
32	0x3d0eb445	0.034839887
33	0xbd4797d1	-0.048728768
34	0x3c30ad15	0.0107834535
35	0xbd610f15	-0.054946024
36	0x3d647b8f	0.055781897
37	0x3ccf2dc9	0.025290387
38	0xbd5bee31	-0.053693954
39	0xbdedca20	-0.11610818
40	0xbd1afbff	-0.03783798
41	0x3ceccae7	0.028905345
42	0x3d5d574e	0.05403834
43	0xbd3de06d	-0.046356607
44	0xbd26a7ac	-0.040687248
45	0xbc76b09c	-0.015056755
46	0xbd2d8f5a	-0.04237304
47	0x3cf04906	0.029331695
48	0xbdb2a839	-0.08723492
49	0xbd2354a5	-0.039875645
50	0x3c6db336	0.014508059
51	0x3d9c9d29	0.076471634
52	0x3bb86aa1	0.0056279455
53	0x3cc596a0	0.024119675
54	0xbd02dd76	-0.031949483
55	0x3d174201	0.03692818
56	0x3df18f4c	0.1179491
57	0x3d964748	0.073378146
58	0x3ca8569c	0.020549111
59	0x3b678760	0.0035328493
60	0x3d73a9d4	0.059488133
61	0xbd6e2cf0	-0.058148324
62	0x3c457983	0.012052896
63	0xbceeffda	-0.029174734
64	0x3d2bca94	0.04194124
65	0x3d81d429	0.063392945
66	0xbcd47b74	-0.025937773
67	0xbc5f9b79	-0.013647907
68	0x3d3088d8	0.043099254
69	0x3c417f8d	0.011810196
70	0xbc9fe7b4	-0.019519664
71	0x3c1fc82d	0.0097523155
72	0x3b9d1481	0.004793704
73	0xbd0e55a3	-0.03474964
74	0xbd38fa90	-0.04516083
75	0xbd7cd8e4	-0.06173028
76	0x3d22245d	0.03958546
77	0x3dd08878	0.10182279
78	0xbcd67fba	-0.026183952
79	0xbd6b090e	-0.057381682
80	0xbd705c85	-0.058681984
81	0xbcfd6cfd	-0.030935759
82	0x3cc0a6e2	0.023517076
83	0x3d340f04	0.043959633
84	0xba8882d5	-0.0010414968
85	0x3ba192a3	0.0049308105
86	0x3de64e27	0.11245375
87	0xbd54d5d0	-0.05196172
88	0xbd0999a1	-0.033593778
89	0xbd0cb88a	-0.034355678
90	0x3d464bbc	0.04841207
91	0xbd0d896e	-0.03455489
92	0x3d27055c	0.040776595
93	0x3d048258	0.032350868
94	0xbc91163b	-0.017710796
95	0x3cb49300	0.022042751
96	0x3d6eb3e1	0.058277015
97	0x3de0fbe5	0.10985545
98	0xbcb0812d	-0.02154597
99	0x3d2086cf	0.039191063
100	0xbc484cb6	-0.012225321
101	0xbd93c05e	-0.072144255
102	0xbd27551d	-0.040852655
103	0x3cbdd98c	0.023175023
104	0xbcd0ec0e	-0.025503185
105	0x3b146d2b	0.0022648077
106	0x3d936f2e	0.0719894
107	0xbd6f681e	-0.058448903
108	0xbc2cae2b	-0.010539572
109	0xbd086007	-0.033294704
110	0x3df0e0fc	0.11761662
111	0xbd23316b	-0.03984205
112	0x3dbfb064	0.09359816
113	0x3d6b74db	0.05748449
114	0x3d799851	0.060936276
115	0x3ce61458	0.028085873
116	0x3d4177a7	0.04723325
117	0x3d851aab	0.06499227
118	0x3d756119	0.059907053
119	0x3d7f997c	0.062402233
120	0xbdaa41f0	-0.08313358
121	0x3d0ef43a	0.03490088
122	0x3cfc4b05	0.03079749
123	0x3d013612	0.031545706
124	0x3cb32a46	0.021870743
125	0x3d9b36b2	0.07578792
126	0x3cfe01f8	0.031006798
127	0x3ceea950	0.029133469
128	0xbd0c67b7	-0.034278598
129	0x3e013e46	0.12621412
130	0xbd4a6dc8	-0.0494211
131	0xbc7ef8c9	-0.015562245
132	0x3d89ef8c	0.06735143
133	0x3bc9d13b	0.0061589754
134	0xbdab6c62	-0.08370282
135	0xbd9960c0	-0.07489157
136	0xbda1e2df	-0.079046
137	0x3aad45db	0.0013219671
138	0x3dacab93	0.08431163
139	0x3d25786e	0.040398054
140	0x3c619638	0.013768725
141	0xbcb59670	-0.02216646
142	0xbcab7d10	-0.020933658
143	0x3db7a19f	0.08966374
144	0x3d532c1d	0.05155574
145	0xbd268341	-0.040652517
146	0xbb0b68dc	-0.0021272218
147	0xbd78efa2	-0.060775407
148	0x3d75fe86	0.060057186
149	0x3d9b6f4b	0.07589587
150	0x3dca7be3	0.09886911
151	0xbd847efe	-0.06469534
152	0x3c4c0449	0.012452194
153	0x3d11db2c	0.03560941
154	0x3d4b58ff	0.04964542
155	0xbd2ecc21	-0.04267514
156	0xbc3eb55f	-0.011639922
157	0x3cc70421	0.024293961
158	0xbc64ed19	-0.013972544
159	0x3dcdf2a7	0.10056048
160	0xbd919fe1	-0.071105726
161	0x3ca098bf	0.019604085
162	0x3d886fa3	0.06661918
163	0xbcd026d4	-0.02540914
164	0x3c4270fc	0.011867758
165	0x3dd0169c	0.101605624
166	0xbdb99c5e	-0.09063028
167	0xbd76b96b	-0.060235422
168	0x3bd0a81a	0.0063676955
169	0x3c987390	0.018609792
170	0xbda75676	-0.08170788
171	0x3d012a21	0.031534318
172	0x3c0ad8e0	0.008474559
173	0x3d4b35a8	0.049611717
174	0x3e066409	0.13124098
175	0x3cef5faf	0.02922043
176	0xbd6ef430	-0.058338344
177	0xbd6b1012	-0.057388373
178	0x3d27d7c6	0.040977262
179	0x3c9a19a5	0.018811056
180	0xbd6ee844	-0.058326975
181	0xbc9c17d5	-0.019054333
182	0xbd151a63	-0.036402117
183	0xbd5cea8e	-0.053934626
184	0x3d8000e9	0.062501736
185	0x3d3bc9af	0.045846637
186	0xbbff9f86	-0.007800999
187	0x3be4c41c	0.006981386
188	0xbd0c17bb	-0.03420232
189	0xbc6ce1df	-0.014458149
190	0x3d9256e0	0.07145476
191	0x3cfb94c2	0.030710582
192	0xbc232c48	-0.009959288
193	0xbc331c40	-0.010932028
194	0xbd85442f	-0.065071456
195	0xbca30443	-0.019899493
196	0xba3d8b9f	-0.0007230583
197	0xbd6c363a	-0.057668902
198	0x3c6e2069	0.014534094
199	0x3d71468c	0.05890517

fc3.weight f4 [10, 200]
0	0x3ebf9fcb	0.374266
1	0xbe8989b5	-0.26862875
2	0xbf6121e3	-0.8794233
3	0xbf2b2970	-0.66860104
4	0xbf43eddf	-0.7653484
5	0x3e1e799e	0.15476081
6	0x3e49f86a	0.19723669
7	0x3dd8a238	0.10577816
8	0x3e7d8ce4	0.24760777
9	0x3eb1e943	0.34748277
10	0x3dc8e4cf	0.09809267
11	0xbe899e4f	-0.26878592
12	0x3e09eeac	0.13469952
13	0xbf920f56	-1.141093
14	0xbf37dc28	-0.71820307
15	0x3e990251	0.2988458
16	0x3ec88901	0.39167026
17	0x3e8dda57	0.27705643
18	0xbd5bda8f	-0.05367523
19	0xbef6c15e	-0.48194402
20	0xbfa9c371	-1.3262769
21	0x3edbac1a	0.4290474
22	0x3ef1983b	0.47186455
23	0xbf589383	-0.84600085
24	0x3eea6e39	0.45787218
25	0xbeb523c8	-0.3537886
26	0xbf543d41	-0.82905966
27	0xbed226c3	-0.41045198
28	0xbd9a19cf	-0.07524454
29	0xbf46d4f7	-0.7766871
30	0x3edebfb1	0.43505624
31	0xbec2c382	-0.38039786
32	0xbe5a633a	-0.21326914
33	0x3e31f81b	0.17379801
34	0xbf9683b1	-1.1758939
35	0xbe8ebe50	-0.27879572
36	0x3f0c6abf	0.5485038
37	0xbf709358	-0.9397483
38	0x3ee6ca72	0.4507633
39	0xbdcfc1fd	-0.10144422
40	0xbe70735f	-0.2348151
41	0x3dacae5d	0.08431695
42	0xbee3326a	-0.443744
43	0xbf562611	-0.83651835
44	0xbf097ffe	-0.53710926
45	0xbf182fe4	-0.59448075
46	0x3f12f8bd	0.57410794
47	0xbee2f87f	-0.44330212
48	0xbf15c236	-0.5849947
49	0x3e474d6f	0.19463132
50	0x3e1299bd	0.14316459
51	0x3ef6f340	0.4823246
52	0x3e780d07	0.2422372
53	0x3efbcac6	0.4917814
54	0x3eda2b66	0.42611235
55	0x3e70ba29	0.23508514
56	0xbf1d4ab3	-0.61442107
57	0x3ed69d01	0.4191666
58	0xbe5b377d	-0.21407886
59	0x3ef2b7f1	0.4740596
60	0x3e6aeb8f	0.22941421
61	0x3f27d02a	0.6555201
62	0xbf8a3be5	-1.0799528
63	0x3c853f54	0.016265549
64	0x3f0d0715	0.5508893
65	0x3ec3c2cc	0.38234556
66	0x3f1b153e	0.6057929
67	0x3f091aae	0.53556335
68	0xbe2d4634	-0.16921312
69	0x3e8f464c	0.2798332
70	0xbf85d337	-1.0455083
71	0xbed0d064	-0.4078399
72	0x3ee98c11	0.45614675
73	0xbf03040f	-0.5117807
74	0xbeae3fa6	-0.34032935
75	0x3f0e7d58	0.5566001
76	0xbee05d69	-0.43821266
77	0x3e9e0048	0.3085959
78	0xbf134aa4	-0.5753577
79	0xbf007369	-0.501761
80	0xbe5b2aae	-0.21403
81	0xbe6c9a7c	-0.23105806
82	0xbe685158	-0.2268728
83	0xbe9f355c	-0.31095397
84	0xbdf6462f	-0.12025105
85	0x3eb90235	0.36134496
86	0xbf7cfac5	-0.98820144
87	0x3f344725	0.7042106
88	0xbea3283b	-0.3186663
89	0x3e5b9457	0.21443306
90	0xbeb50946	-0.35358638
91	0x3ed2bf97	0.41161796
92	0xbf64c2f4	-0.89359975
93	0xbe3ec82b	-0.18631046
94	0x3f138f26	0.576403
95	0x3e55a552	0.20863846
96	0x3eef57fa	0.46746808
97	0xbf274b5e	-0.65349376
98	0xbf5b7a05	-0.8573306
99	0xbec8b035	-0.39196935
100	0xbf29f13e	-0.6638373
101	0xbf0fe304	-0.56205773
102	0xbf955ae5	-1.1668364
103	0x3efcf429	0.4940503
104	0xbf98eb6f	-1.1946849
105	0xbf484d8a	-0.78243315
106	0x3ee88c3e	0.45419496
107	0xbf73baa9	-0.95206696
108	0x3ef2e39b	0.47439274
109	0x3eadc9f7	0.3394315
110	0xbe1efefe	-0.1552696
111	0xbf51b8ac	-0.8192241
112	0xbf5fef00	-0.8747406
113	0x3f4df8c6	0.80457723
114	0xbf2359ef	-0.638091
115	0x3f0fa323	0.561083
116	0x3e6b2e08	0.22966778
117	0xbeaab1b7	-0.3333871
118	0xbf153f70	-0.5829992
119	0x3f100980	0.56264496
120	0x3ef2a164	0.47388756
121	0x3e9210e8	0.28528523
122	0xbf05eeaa	-0.523173
123	0x3f0a3f13	0.54002494
124	0xbf83032f	-1.0235347
125	0xbf917583	-1.1363987
126	0x3f1c8ecb	0.61155385
127	0x3e5f5a67	0.2181183
128	0x3ed7ccf3	0.4214855
129	0xbf0d8ac2	-0.5528985
130	0xbd512067	-0.051056292
131	0xbf389120	-0.72096443
132	0xbe68bfa2	-0.22729352
133	0x3e9193c3	0.28433046
134	0x3f111490	0.56672
135	0xbeebcfd7	-0.46057007
136	0xbe3ef32d	-0.18647452
137	0xbf2a4c37	-0.66522545
138	0xbf0eeb17	-0.5582747
139	0xbf5f74f0	-0.8728781
140	0xbdc95175	-0.0982999
141	0x3e8dd8dc	0.27704513
142	0x3e21df83	0.15807919
143	0x3df301d4	0.11865583
144	0xbf314a24	-0.69253755
145	0x3ee6e8a7	0.45099375
146	0xbe19637a	-0.14979354
147	0xbce9d556	-0.02854411
148	0x3ef43a20	0.47700596
149	0xbe80694d	-0.25080338
150	0x3ece0d7d	0.40244666
151	0x3f4895f2	0.783538
152	0x3d38cc4f	0.04511672
153	0x3e70a6a5	0.2350107
154	0x3e9dbc1d	0.30807582
155	0x3d4c0ffd	0.049819935
156	0xbf44e39a	-0.7690979
157	0xbec539ee	-0.3852076
158	0x3e895e9e	0.2683
159	0xbf8d3b35	-1.1033694
160	0x3f300ba6	0.68767774
161	0x3f54bca8	0.83100367
162	0x3d6d9601	0.058004383
163	0x3f04c789	0.51866966
164	0x3e6524a6	0.22377262
165	0xbe955620	-0.2916727
166	0xbed2bc0c	-0.41159093
167	0x3f458b86	0.7716602
168	0xbe976473	-0.29568824
169	0xbedd119f	-0.43177506
170	0x3ed73e35	0.42039648
171	0xbf017392	-0.5056697
172	0xbf15cca7	-0.585154
173	0x3ec666ef	0.38750407
174	0x3d73be18	0.05950746
175	0x3f27bdf6	0.6552423
176	0xbe0cf18a	-0.13764015
177	0xbd9162a7	-0.070988946
178	0xbeee193b	-0.46503624
179	0x3e911dfa	0.28343183
180	0x3f021164	0.50807786
181	0xbb830745	-0.0039986693
182	0xbef3fd0b	-0.47653994
183	0x3eb165de	0.3464803
184	0xbf7dcffd	-0.9914549
185	0xbd3fde5c	-0.046842918
186	0x3d306167	0.04306164
187	0xbf00f870	-0.50379086
188	0x3ecf8080	0.40527725
189	0x3ede7adf	0.43453118
190	0xbf0b59b4	-0.5443375
191	0xbf4bfc7c	-0.79682136
192	0xbcc55c54	-0.024091877
193	0x3f1bd0f1	0.60865694
194	0xbe3252b2	-0.17414358
195	0x3f4b06bd	0.79307157
196	0xbed65302	-0.41860205
197	0x3e62a069	0.22131504
198	0x3edadda0	0.4274721
199	0xbe602a75	-0.21891196
200	0xbea4b338	-0.32167983
201	0xbdc17282	-0.09445669
202	0x3f10fa2c	0.5663173
203	0x3f250344	0.6445811
204	0x3f235e51	0.6381579
205	0xbf1d76d4	-0.6150944
206	0xbf7853ab	-0.9700267
207	0xbe837851	-0.25677732
208	0xbf069182	-0.5256578
209	0xbe5ac30e	-0.2136347
210	0xbe64e07f	-0.22351263
211	0x3f0a7591	0.5408564
212	0xbedd7387	-0.43252203
213	0xbe02b48c	-0.12764186
214	0x3f14854c	0.58015895
215	0xbf8a4f93	-1.0805534
216	0x3e1c9a56	0.1529325
217	0xbf499824	-0.78747773
218	0x3ee5599a	0.44794923
219	0x3eebaa08	0.4602816
220	0x3ee07b2f	0.43843982
221	0xbf8cbfc6	-1.0996025
222	0xbf66d484	-0.90168023
223	0x3e8a859b	0.27055058
224	0xbf23c4ce	-0.63972175
225	0x3e88cbb0	0.267179
226	0x3f218893	0.6309902
227	0xbda2a2c6	-0.07941203
228	0xbf7ab14f	-0.979268
229	0xbe21ffdf	-0.15820263
230	0xbf58b1dd	-0.846464
231	0x3f750784	0.9571459
232	0xbea30a48	-0.3184378
233	0xbf8a8d3a	-1.0824349
234	0x3ee74afd	0.451744
235	0xbe8c119c	-0.27357185
236	0x3df3ef7e	0.11910914
237	0x3e5c8d62	0.21538308
238	0xbead993c	-0.3390597
239	0x3f1d84b4	0.61530614
240	0x3f167837	0.58777183
241	0xbe36c7f4	-0.17849714
242	0xbe3836d1	-0.17989661
243	0x3eb5de65	0.35521236
244	0xbe4b6030	-0.19860911
245	0x3f24b40d	0.64337236
246	0x3f19cbb8	0.60076475
247	0x3ef1fdaf	0.47263858
248	0x3f5217ce	0.82067573
249	0xbf0bd32a	-0.54619086
250	0xbf0365d8	-0.51327276
251	0xbf8bfc8e	-1.0936449
252	0xbf4bb48e	-0.7957238
253	0xbeaa8308	-0.33303094
254	0xbf66579d	-0.8997744
255	0xbe3c1945	-0.18369015

fc3.bias f4 [10]
0	0x3d50de03	0.050992977
1	0x3d1e9e10	0.03872496
2	0xbcc725d0	-0.024310023
3	0x3d95ca9b	0.073140346
4	0x3db25cc7	0.08709102
5	0x3a1e39cc	0.0006035834
6	0x3d2f9829	0.04286972
7	0x3d1bca8c	0.03803496
8	0xbbc98e40	-0.0061509907
9	0x3d9ed322	0.07755114
