bagging/parameters/parameters_4net4bagging.pth (torch, 799191 bytes, 6 tensors)

fc1.weight f4 [200, 784]
000000 1b 70 05 3d 00 89 00 3d 4a bc cc bb 81 8e 74 bb
       0.032577615 0.031380653 -0.0062480317 -0.0037316384
000010 53 40 ab bb 88 65 b5 3c bb 4e d9 3c ab db f6 bc
       -0.005226174 0.02214314 0.0265268 -0.030134043
000020 b5 5e 02 bc 0e f9 0f bd b2 e7 d2 bc 57 f8 2a 3c
       -0.00795715 -0.035149626 -0.025745247 0.010435185
000030 00 d8 36 bc 13 60 6a 3c 9e ab db bc 1f cb bf 3b
       -0.011159897 0.014305132 -0.026815232 0.0058530713
000040 f0 03 dd bc c5 f7 10 bd 73 7b be 3c d1 23 0b bc
       -0.026979417 -0.03539254 0.023252225 -0.008492426
000050 9a 7c 0e 3d b8 cc c1 3b 0a bd 37 bc bb 66 4e bc
       0.034786798 0.005914297 -0.011214504 -0.012597735
000060 15 24 cc bc 00 f2 0c bd d2 51 b5 3c 05 d0 02 bd
       -0.024919549 -0.034410477 0.022133742 -0.031936664
000070 01 d6 f1 bb 30 14 88 3c b0 87 a0 3c 44 ee 7d 3a
       -0.0073802476 0.016611189 0.01959595 0.00096866884
000080 fd 81 11 bc ee 27 c0 3c 04 55 9e 3b 91 6e 8b bd
       -0.008881089 0.02345654 0.004831912 -0.06808198
000090 d1 de 35 3b 5c 7f 5f bc f5 b9 be bc 16 4c 20 3c
       0.0027751217 -0.013641205 -0.02328203 0.009783765
0000a0 82 e2 e2 3c 47 40 42 3b 3c 90 9f 3c c4 fd 56 3c
       0.027695898 0.0029640363 0.019477956 0.013122026
0000b0 ec 08 1c 3d 45 5c dd bb 1e 4c 24 bd e1 0a 27 bd
       0.038094446 -0.006755384 -0.040111654 -0.04078186
0000c0 33 c3 94 3b 98 92 b3 b8 9e 33 1e 3c 1c 22 d2 bc
       0.004539871 -8.56269e-05 0.009655861 -0.02565103
0000d0 de eb fa 3c c6 c1 1b bc 52 49 0c bd b8 bd 60 3b
       0.030630048 -0.009506648 -0.03424961 0.0034292769
0000e0 a5 cd 62 3c aa 86 af ba ee 4b 02 3b 80 24 f2 3c
       0.013842975 -0.0013391573 0.0019881683 0.02955842
0000f0 7c 1f 94 bc d2 ad 67 3c a5 b0 8a bc c3 33 33 bd
       -0.01808142 0.014140563 -0.016929934 -0.043750536
000100 52 bb 8f bc ed 76 05 3d 38 4b 88 3b 11 95 93 3c
       -0.017545376 0.03258412 0.0041593574 0.018015416
000110 07 43 e4 3c 20 51 35 3d 37 39 03 bd d9 57 b8 bc
       0.027863992 0.04426682 -0.032036986 -0.022502827
000120 eb ae 04 bd 36 ee dc bb 16 53 14 bd 88 80 b1 bc
       -0.032393377 -0.006742264 -0.03621205 -0.021667734
000130 8a 90 7a 3d 0c f1 15 3c 6a a4 ad bc 94 c4 c9 3c
       0.061173 0.009151708 -0.021196563 0.024629869
000140 ae 13 e1 bc c5 d1 14 bc 6a 30 ae 3c 87 c4 1a bb
       -0.027475204 -0.009083216 0.02126332 -0.0023615675
000150 45 96 a3 3c d5 2e 35 3c 21 56 5e bc 83 d3 b3 bc
       0.019969115 0.011058529 -0.013570339 -0.021951443
000160 7d de bb 3c 2c 98 02 bc 5b 65 5e bd 0d 31 51 bb
       0.02293324 -0.007970851 -0.05429588 -0.0031920106
000170 cf 3f 5c 3c 7c e6 4b 3c 6f 98 69 bd 2c ea 26 bc
       0.0134429475 0.0124450885 -0.057030138 -0.010187667
000180 19 d3 eb bc 18 64 26 3d ba f7 ef 3c 48 ec e1 3a
       -0.028787183 0.0406228 0.02929293 0.0017236555
000190 10 33 88 3c de 2d 77 bc d8 43 ab 3c 00 50 e1 3b
       0.016625911 -0.015086619 0.020906374 0.006875992
0001a0 45 80 1f 3c 84 9a 1d bd 22 07 b8 bc 43 b5 a1 bc
       0.009735172 -0.038477436 -0.022464339 -0.019739753
0001b0 c9 91 0e bd 56 4f 08 bb 33 3a af bc ef 29 f6 3b
       -0.034807 -0.002079924 -0.021390056 0.007512323
0001c0 a5 a4 87 3c 77 d1 ee 3b 39 6a cf bc c8 28 f7 3c
       0.016558 0.0072881537 -0.025319206 0.030170813
0001d0 2e 2f dc 3b 6b 05 12 3d 52 1c 5d bd 88 0f 89 bd
       0.0067194914 0.0356497 -0.053982086 -0.066924155
0001e0 2e ee 42 3d 12 a3 9e 3d fd 7c c9 3b 24 70 77 3c
       0.047590427 0.07745947 0.006148933 0.01510242
0001f0 ae bc e2 bc 06 39 23 3d 50 7b 33 bb 72 c3 47 bc
       -0.02767786 0.039849304 -0.0027386732 -0.012192594
000200 22 6a c7 3c 04 60 0e bc 51 68 24 bb 55 f0 d4 bc
       0.0243426 -0.008689884 -0.0025086591 -0.025993505
000210 d1 e1 2b bc b7 30 4d 3c 8d d1 97 bc b1 ed 22 bd
       -0.010490851 0.012523822 -0.018532539 -0.03977746
000220 16 c2 34 bd c7 5c 85 bd f3 ab 61 bc 9a b0 c2 bc
       -0.044130407 -0.065118365 -0.013773906 -0.02376585
000230 d3 d3 14 3d 18 36 a1 3c c3 a5 94 ba b2 2d 00 bd
       0.036334824 0.019679114 -0.0011340905 -0.03129358
000240 56 d3 06 bd 1d 26 4f 3d 50 f4 4a 3c df 1d 76 bc
       -0.03291639 0.050573457 0.01238735 -0.01502177
000250 b9 bb ed 3b bc 76 7d 3d 88 b7 1e 3c fa ee c9 3c
       0.0072550443 0.061880812 0.009687312 0.024650086
000260 e4 38 6b 3d 2d b3 9c 3d 53 f1 ca 3b fa 0b 81 3d
       0.057427302 0.076513626 0.006193319 0.063011125
000270 82 84 bb ba 43 d0 08 bc 91 9d a6 bc bf 43 d8 bb
       -0.0014306458 -0.008350435 -0.020338805 -0.006599873
000280 d5 24 8e 3c 94 c6 55 3d f9 99 3e 3d 42 c4 0c bb
       0.017351547 0.052191332 0.04653356 -0.0021479283
000290 58 97 61 bd 0e d5 63 bd 63 42 98 bc de d3 be bc
       -0.055075973 -0.055623107 -0.018586343 -0.023294386
0002a0 c2 b7 0c bc cd 8e 75 bb 39 c9 83 3c 91 9b 08 bd
       -0.008588733 -0.003746915 0.016087161 -0.033351485
0002b0 77 a7 09 bd e7 2a 18 3c 0c 49 57 3d 6b 8d 82 3c
       -0.033606973 0.0092875725 0.052559897 0.015936574
0002c0 46 36 1b 3d 0b 88 e5 3c 6a f1 ce bc 6d 88 95 3b
       0.037893556 0.028018972 -0.0252616 0.0045633824
0002d0 1f 6b e0 3b 8c f0 d2 3a cd a8 4a 3d 08 36 b2 3d
       0.0068487073 0.0016093417 0.049477387 0.08701712
0002e0 a9 41 b1 3d 29 b4 a6 bc 83 08 66 3d 4b 26 24 3d
       0.08655102 -0.020349579 0.05616046 0.04007558
0002f0 91 cb e2 bc 53 a6 1f bc 9d 2e 72 3d 6f dc e5 3b
       -0.027684959 -0.009744245 0.059126485 0.007014803
000300 1e f9 39 bd 9c 57 f8 bc 58 b1 c9 bc 21 18 13 3c
       -0.045403592 -0.030315213 -0.024620697 0.008977921
000310 09 b3 3a bb a1 51 09 bd f3 55 2e bc a6 91 02 bd
       -0.002848806 -0.033525113 -0.010640609 -0.031877182
000320 00 7d f8 ba 19 73 dc 3a b5 14 23 bc db e0 04 bc
       -0.0018958151 0.001681897 -0.009953667 -0.00811025
000330 0d 8f 19 3d db 42 3d bd 31 38 6f 3b fb 61 23 3c
       0.03748994 -0.046206336 0.0036501999 0.009972091
000340 09 f8 02 3d 54 0b 74 bc d1 26 2e 3d c3 d9 0b 3d
       0.031974826 -0.014895279 0.042517487 0.03414322
000350 ae 96 67 3d 2c 34 c9 3c d7 00 3d 3d 92 c3 6a 3d
       0.056540184 0.02456101 0.04614338 0.057315417
000360 ff 3f b6 3c b8 77 2e 3b 97 a8 22 3d 8d 48 75 3d
       0.022247313 0.002662165 0.03971156 0.059883643
000370 32 15 8e bc d9 8c 54 bd 23 e4 f6 bc 77 ea 18 bd
       -0.017344091 -0.051892135 -0.030138081 -0.037332978
000380 fc 6d 1d 3b b5 48 81 bc fc b0 15 bd 2c 76 b0 bc
       0.0024021855 -0.01578174 -0.03654574 -0.021540724
000390 25 29 77 bc a7 1b 0b bd 31 fb a0 bd bc 6d b6 3c
       -0.015085493 -0.03396192 -0.07860411 0.022269122
0003a0 0d 40 e0 3c 87 55 f8 3c 7e d0 b4 bc 88 71 84 bd
       0.027374292 0.03031422 -0.022072073 -0.06466967
0003b0 53 bb 88 3c 99 d9 19 3d ce 5d 80 3d 5a 56 a4 bc
       0.016690886 0.037561033 0.06267892 -0.020060707
0003c0 35 45 30 3c e0 2a 20 bc b2 7a 85 3d 54 28 36 3d
       0.010758688 -0.009775847 0.06517543 0.044472054
0003d0 1a af 26 3d 03 5e 3e 3d a2 23 35 3d 4d 82 ca 3c
       0.040694334 0.046476375 0.044223435 0.024720335
0003e0 df 05 17 3d 9b b5 58 3c dc fa 6f bc 80 a3 f2 bc
       0.036870833 0.013226892 -0.014647212 -0.029618979
0003f0 40 40 19 3d de 43 0a 3d 49 96 14 3c c0 a6 fc bc
       0.03741479 0.03375613 0.009069034 -0.030841231

fc1.bias f4 [200]
000000 06 d9 cd 3d 16 44 7b 3e 48 ff 3a 3d 66 e6 d3 3d
       0.100511596 0.24537691 0.04565361 0.103466794
000010 ca 37 f8 bc 26 0e 2e be 21 a9 89 3e ef 63 b0 bd
       -0.03030004 -0.16997585 0.26886848 -0.08612811
000020 10 33 a2 3d e1 f4 8f 3d c0 0f 1c be c5 22 38 3e
       0.07919896 0.07029129 -0.15240383 0.17982014
000030 fc af ac be 6a aa 7d bd c0 27 18 bd ec 05 9d 3d
       -0.33728015 -0.061930098 -0.037147284 0.07667145
000040 fc 11 8c 3e 45 0d 83 3e 80 be 2e 3d f1 dc f4 bd
       0.2735747 0.2559606 0.042662144 -0.11956204
000050 85 e9 9c bd 59 55 a8 be 2f f8 bf 3d 60 38 8a 3d
       -0.07661728 -0.32877615 0.09373509 0.06749034
000060 51 6b b6 bd d8 50 be be 57 fb d2 3c 15 d4 f0 3d
       -0.08907188 -0.37171054 0.025754614 0.117592014
000070 b7 40 42 3c 3f 12 04 bf ed fd 69 3d 34 2b 48 be
       0.0118562495 -0.5159034 0.057126928 -0.1954773
000080 34 50 89 bd 1d 34 62 be 4d 81 67 3e 93 6d 95 bd
       -0.06704751 -0.22090192 0.22607918 -0.0729629
000090 aa 39 c3 bd bf 0e e5 3c 2c c4 97 3d 68 c1 43 3e
       -0.09532483 0.027961133 0.07410464 0.19116747
0000a0 a9 fa 55 3e 35 1c 9c 3e c2 c8 5c 3e 52 f5 b2 3c
       0.208964 0.3049027 0.21560958 0.021845493
0000b0 67 ff 15 be 47 50 8a 3d 62 7b d1 3e 3a 56 21 bd
       -0.1464821 0.06753593 0.40914446 -0.039388873
0000c0 b5 3f da 3e 4e 3d 39 be 8d 4d 8a 3d 42 c2 a4 3d
       0.4262673 -0.18089792 0.06753073 0.08044864
0000d0 13 47 93 be cf 40 2b 3e f1 72 cf be 7f 56 d6 bc
       -0.28765163 0.16723941 -0.4051738 -0.026164291
0000e0 2d 78 3b be 40 12 56 3d f0 0f 6e bd bd 51 40 3d
       -0.18307562 0.0522635 -0.058120668 0.04695295
0000f0 a7 50 5d 3d e5 b8 62 bd 8b af f9 bd 07 d7 11 bd
       0.054031994 -0.05535211 -0.12191685 -0.035605457
000100 5a 36 17 be 91 f7 b6 3e b1 12 26 3c 0a ce 8a 3d
       -0.14766827 0.35735753 0.010136292 0.0677758
000110 5a 7e cf bd c4 3b 01 bd 42 5a 52 be ae cb 0e be
       -0.101315215 -0.031551138 -0.20542243 -0.13944885
000120 13 8f 3d 3c 19 43 43 3e 1e fe 51 be f1 72 25 3e
       0.011569756 0.19068564 -0.20507094 0.16157128
000130 59 b7 15 be bc 77 a7 bd ca 39 3f 3e cd 20 b0 be
       -0.14620723 -0.081771344 0.18674389 -0.34400025
000140 5f a6 40 be 44 92 6e 3e 87 4d 11 be d4 f4 89 3d
       -0.18813466 0.23297983 -0.1418973 0.067361504
000150 b0 7e 90 bd 52 28 de 3d 76 9e 0e 3c ec 52 8f be
       -0.07055414 0.10847534 0.008704772 -0.27992952
000160 48 bd 92 be 81 60 12 be 02 83 d8 bd 9e 01 8b 3e
       -0.28660035 -0.14294626 -0.10571863 0.2714967
000170 ad 47 d4 3d fd 64 98 be f2 d8 d5 be 3c ca 43 be
       0.103652336 -0.29764548 -0.4176708 -0.19120115
000180 53 c1 ec 3c 78 bb 8d 3d 18 59 61 3d f9 8f 4b bd
       0.028900778 0.069205225 0.055016607 -0.04969785
000190 92 fd 9f bd 4b 04 47 bc e9 63 dc be 4d f7 ba bd
       -0.078120366 -0.01214702 -0.43044975 -0.091292
0001a0 20 1a 6e be c5 d6 06 3e b5 6d 2b 3e 76 90 c4 3d
       -0.23252153 0.13167866 0.16741069 0.09597866
0001b0 e0 42 bd be 3d 79 de bd b7 cd 19 3e 01 8d c2 3d
       -0.36965084 -0.10862968 0.1501988 0.094995506
0001c0 18 97 ba bd 98 c7 cf bc 89 f9 77 be d5 eb a5 be
       -0.0911085 -0.025363728 -0.24216284 -0.32406488
0001d0 fa cd 03 bf d4 26 fb 3b 27 e5 66 3e 72 1b 16 3e
       -0.5148617 0.007664541 0.22548352 0.14658907
0001e0 e3 c4 de bd 51 a8 b9 bc 73 a2 33 3e 17 9a e9 3d
       -0.10877397 -0.022663267 0.17542438 0.114063434
0001f0 fc d4 8a bd 9c b1 2f 3e 3b 8d 2c bd 92 28 20 be
       -0.06778905 0.17157596 -0.042126875 -0.15640476
000200 6e 9b 80 bd 6c 7f 95 3e e5 bf 9d be 89 a9 96 be
       -0.06279646 0.29198778 -0.30810466 -0.2942622
000210 65 f7 ac 3e bc f9 ad 3d 99 5c 27 bd 13 e6 1a be
       0.33782497 0.08494899 -0.040859792 -0.15126829
000220 87 6d 1e bd 39 9e 03 be 28 87 96 bd 91 8c a4 3c
       -0.038678672 -0.12853326 -0.07349998 0.020086559
000230 bb de b8 be e3 16 53 be 16 79 d4 3d 97 25 93 3d
       -0.3610743 -0.206142 0.10374658 0.07184904
000240 fd d9 47 be 4a fc b6 bd 60 58 df 3c 5c 5d 1e be
       -0.1951675 -0.08934839 0.02726382 -0.15465301
000250 4f d6 fc 3d f1 53 3e be ff 2f 7f bd 10 8c b0 bd
       0.123455636 -0.18586709 -0.062301632 -0.08620465
000260 10 47 97 be 0c 27 24 be d1 b5 08 be b6 cf 6c 3e
       -0.29546404 -0.1603052 -0.13350607 0.2312611
000270 a4 95 f8 bb d0 18 44 3e 46 0b 94 bd 91 25 80 be
       -0.007586198 0.1915009 -0.07228713 -0.2502866
000280 34 09 90 3e b4 28 86 be f1 d0 e0 bd dc b7 b1 be
       0.2813202 -0.2620293 -0.109773524 -0.34710586
000290 6a ac a4 be 1b d1 0c be fb 2b 6a 3c 25 92 8b 3c
       -0.32162791 -0.13751642 0.014292712 0.01703746
0002a0 61 4d 87 3d c6 8f 66 be 78 c6 0f 3d 30 dc cd 3d
       0.06606556 -0.22515783 0.035101384 0.10051763
0002b0 9d 40 f4 bd c3 f2 aa 3a 53 5a 73 bd 46 94 9f bd
       -0.119263865 0.0013042319 -0.05941231 -0.07791953
0002c0 96 06 22 bb 4c 23 82 3c a3 b7 83 3e 46 bb 26 3e
       -0.0024723164 0.015885971 0.2572604 0.16282377
0002d0 69 88 96 3d de 2a 1d 3d 8a 1e b7 3d 09 85 86 bc
       0.07350237 0.03837096 0.08941372 -0.016420858
0002e0 ea da 28 be 84 46 f4 3c a5 5a 89 3e 12 64 1b be
       -0.16489759 0.02981878 0.2682697 -0.15174893
0002f0 1e 0a e9 bd 80 8c bb 3e bf d8 27 be 8d 80 69 be
       -0.11378883 0.3663063 -0.16391276 -0.22802944
000300 e5 1c 4d 3c cd c2 51 3e 19 d3 da bd 88 49 53 bc
       0.012519096 0.20484467 -0.10684795 -0.012895949
000310 66 93 46 be a4 0a 6a 3d 3e 74 c8 3c 2c 62 f7 3a
       -0.19392166 0.057139054 0.024469491 0.0018873862

fc2.weight f4 [200, 200]
000000 30 86 25 3d 72 72 29 3e 82 1b 8f 3d de 58 34 be
       0.040411174 0.16547564 0.069876686 -0.17612025
000010 e9 dd 81 bd ce 80 28 bd 9a 21 0d 3e 48 3f 1d 3d
       -0.06341154 -0.041138463 0.13782349 0.038390428
000020 96 a5 db bd 57 95 5e 3c 45 bb b5 bd 86 ee 1b be
       -0.107249424 0.01358541 -0.088736095 -0.15227708
000030 30 73 76 3d 6b b6 92 bd 2a ec 17 bc 89 14 c9 bc
       0.060168445 -0.071637 -0.0092726145 -0.024545925
000040 b8 b9 80 3e 7a 3e 3e 3e cf 06 2c 3c 64 3e 02 be
       0.25141692 0.1857852 0.01049967 -0.12719113
000050 ed 36 95 bd 15 ba af bd 71 bb 3e 3c a1 cd a0 3b
       -0.07285867 -0.08580414 0.011641369 0.0049073254
000060 4c d5 22 bd 40 8a 08 bd 4e 38 0f 3b 3c 2b 1d 3d
       -0.039754197 -0.03333497 0.0021853629 0.03837131
000070 f8 9c 8e 3c d5 c0 51 be 8e ff 01 3d 6a 56 50 bd
       0.017408833 -0.20483716 0.031737857 -0.05086366
000080 89 9d 3c b8 d5 a4 1a 3d 7a 1b 65 3c ca 27 a1 3d
       -4.496941e-05 0.037754852 0.013983602 0.07868917
000090 34 5d ba b9 79 3c ae bc c7 c0 32 be 8c 58 bd bd
       -0.00035546126 -0.02126907 -0.17456351 -0.092454046
0000a0 36 b0 d8 bd f2 03 fb 39 7e 4b 03 be 0a d8 b3 3c
       -0.105804846 0.0004787739 -0.12821767 0.021953601
0000b0 d8 53 e8 3c ee 70 27 3d de 55 81 3e fc 21 10 3d
       0.028360292 0.040879183 0.25260824 0.03518866
0000c0 ef 9c c9 3c c4 51 0f 3d ce 29 83 3d 4a f3 d2 3c
       0.024610965 0.034990087 0.06404458 0.025750775
0000d0 24 30 90 be 6d 4a 1d 3e e1 eb 92 bd 33 3e 09 3e
       -0.28161728 0.15360422 -0.071738966 0.13402633
0000e0 56 c1 7f 3d 89 0f 37 be 19 e2 5e bd 8a b3 dd bd
       0.06244024 -0.1787702 -0.054414842 -0.1082526
0000f0 46 52 81 bd 93 1e 03 be d0 0b 1b be a6 5a a1 3d
       -0.063145205 -0.12804632 -0.15141225 0.07878618
000100 d8 da 20 be ca 36 64 3d 77 e2 bc 3d af 94 2c be
       -0.15708482 0.055716313 0.09222882 -0.16853593
000110 d0 dc 0d bc 40 d5 a8 3d af 7a 0a 3d ed 16 7a be
       -0.008658603 0.08243799 0.033808406 -0.24422808
000120 a8 03 cb bc 43 32 f2 3d e6 e6 c6 bd 70 61 c0 3d
       -0.024782017 0.11825993 -0.09712009 0.09393585
000130 7f 0a 87 bd 77 a1 48 be c3 7d 05 be 0e 32 55 be
       -0.06593799 -0.19592844 -0.13036256 -0.20819876
000140 cd 1b 0a 3d ad e5 75 3d a9 f9 42 bd f6 cf 15 3e
       0.03371792 0.06003349 -0.047601376 0.14630112
000150 0c 05 7a be ac fa d1 bd 38 fe 80 bd 4b 86 a6 be
       -0.24415988 -0.1025289 -0.062984884 -0.32524332
000160 a6 6c 04 bc 37 a1 d5 bc 81 4e df 3b bc 56 b1 3c
       -0.008082544 -0.02607785 0.0068147783 0.021647803
000170 4d 7e c9 ba ba 8a 0f 3e 3a 39 9a bc d6 ed cd bd
       -0.0015372724 0.14017764 -0.018826116 -0.10055129
000180 d3 6b 81 bc a3 a8 0d 3e 30 87 30 3e 18 cd e2 bc
       -0.015798485 0.13833861 0.1723907 -0.027685687
000190 f6 9b 52 3d 9d 99 40 bd 62 37 9b bd 0f dc 52 3d
       0.051418267 -0.047021497 -0.07578923 0.051479395
0001a0 64 dd f4 3c 7e ed 89 3b 49 fc 12 3d 9f 52 d5 3d
       0.029890724 0.0042092195 0.03588513 0.10416149
0001b0 3b 9b 45 bc e1 3e b4 bd fe 98 b5 3c cc b5 24 3d
       -0.012060936 -0.08801056 0.022167679 0.040212438
0001c0 82 82 95 bc 31 4e c8 bd 75 13 3e 3c d0 1c c6 3d
       -0.018250708 -0.09780539 0.011601319 0.09673464
0001d0 1b 66 0b 3e 82 2b 8b bd 2a 0a 0f be e9 2e 87 bc
       0.13613169 -0.06795408 -0.13968721 -0.01650186
0001e0 33 be 3e bc a1 ba e0 bd 5e b4 71 3d ce d9 bf 3d
       -0.011642027 -0.10973097 0.059009902 0.09367715
0001f0 8b 76 c6 3d 0c d6 a9 3d 16 1e dd 3c 99 05 b7 bd
       0.09690579 0.08292779 0.026991885 -0.089366145
000200 6a 99 41 3d d4 8c 67 3d fb 71 9f be c9 ec 65 be
       0.047265448 0.05653079 -0.31141648 -0.22453608
000210 70 5e cf 3b 31 e3 4c bd 48 f5 0e 3e 7d 88 3f 3d
       0.0063283965 -0.050021354 0.13960755 0.046761025
000220 51 d3 08 be 16 1c 17 be 2c c1 8e bc 6f e1 95 3c
       -0.13361861 -0.14756808 -0.017426096 0.018295972
000230 08 50 e3 bc ef e2 dd bc d7 45 f4 bc 77 3e c1 3d
       -0.027748123 -0.02708575 -0.029818458 0.09435742
000240 35 08 12 be 3d 7e e3 bd 59 a8 25 3c c4 a5 89 bd
       -0.14260943 -0.111080624 0.010110938 -0.067210704
000250 e2 27 0e 3e 01 55 04 be 24 7a 11 3d 6c 25 f8 ba
       0.13882402 -0.12923051 0.035516873 -0.0018932051
000260 fa db 3d be 0f 13 96 3c 9f 1c 93 bc c4 69 ce 3d
       -0.18540946 0.018319635 -0.017957984 0.10078767
000270 d3 50 46 3d 67 ea 14 3e ac b4 a8 3c b1 b9 e6 3c
       0.048416924 0.14542542 0.020593964 0.028164716
000280 a9 e3 c3 3c f2 35 58 bc c6 03 ac 3d a3 ea ab be
       0.023912268 -0.013196455 0.08399157 -0.3357745
000290 58 9f b6 3d 84 02 0e be 17 7d 8f bd 64 ad 75 3a
       0.08917111 -0.13868147 -0.07006281 0.00093718455
0002a0 de 85 bb bc 9a d9 80 bd 42 cf 0f 3d 28 32 25 3d
       -0.022890981 -0.06291504 0.035109766 0.040331036
0002b0 4b b3 58 bd c1 27 b1 bd af 0a d6 bd fb 8f 03 3d
       -0.052905362 -0.086501606 -0.104512565 0.032119732
0002c0 02 6a 48 3d d2 b1 08 be bb c1 99 3e 41 e5 6a 3e
       0.048929222 -0.13349083 0.30030617 0.22939016
0002d0 df 2c d2 bd f4 80 28 3d bf a0 33 bd 1f 9a 95 bc
       -0.10262465 0.041138604 -0.04385447 -0.018261967
0002e0 56 87 c2 bd 10 5c bd 3b 16 6d 1c 3e c1 d6 13 3e
       -0.094984695 0.005778797 0.15275988 0.14437391
0002f0 c7 57 d1 bd 88 22 d1 3d 32 eb f6 bb f9 cf 40 be
       -0.1022182 0.102116644 -0.0075353617 -0.18829335
000300 7f 21 9f bd 34 ec e8 3c 14 bc 8c 3d 58 5e 9b bc
       -0.07770061 0.028432943 0.068718106 -0.018965885
000310 10 61 bd 3d e7 1f 5d bd da 0b 69 bc 2c a4 86 3c
       0.09247029 -0.053985503 -0.014224017 0.016435705
000320 8c 84 44 bd ee 8c a2 bd 8c a2 1c be 42 ed 11 bd
       -0.04797797 -0.079370365 -0.15296382 -0.035626657
000330 57 79 d3 bd 32 22 7f 3d b3 89 be bd 02 48 b1 3d
       -0.10325878 0.06228847 -0.09303608 0.086563125
000340 7c 4a 32 3d 2b 1a 11 bd a9 91 ef bd 50 bf f9 3d
       0.043528065 -0.035425346 -0.11697704 0.12194693
000350 ae 49 ce bd 1f b6 e9 bd ef aa cc bd 83 54 81 bd
       -0.10072647 -0.1141169 -0.099935405 -0.063149475
000360 f9 99 66 be 92 b0 65 bd 93 a9 2d 3d 99 76 26 3d
       -0.22519673 -0.056076594 0.042398047 0.040640447
000370 81 92 90 bc 6d 7e 0a 3e 19 61 ae bd 16 ee 2d 3d
       -0.017647984 0.1352479 -0.08514614 0.042463385
000380 33 84 9e bc 70 9f ac bd 29 2f b7 3b c8 a4 30 bc
       -0.019350147 -0.08428848 0.0055903387 -0.010781474
000390 03 2d 61 bd 0f 19 19 3e 65 67 85 bd 58 5e 2e bd
       -0.054974567 0.14950965 -0.065138616 -0.042570442
0003a0 62 07 ed 3d 8e ae 09 be a7 47 be 3d 46 be 89 3d
       0.11573674 -0.13445494 0.0929101 0.06725745
0003b0 16 67 8b bd b3 7b ab bd 61 c6 70 bc 4d 99 5a 3c
       -0.068067715 -0.08373203 -0.014695735 0.013342214
0003c0 d1 fd 05 3e ed 2a 95 be 71 51 7d 3c 90 82 3d 3d
       0.13085105 -0.29134312 0.015461312 0.046267092
0003d0 de 9a f3 3c fb f2 03 be 74 90 d9 bd 6d e0 58 3c
       0.029736932 -0.12885658 -0.10623255 0.013237101
0003e0 44 a9 37 3b e8 da 01 be af da 7c bd 44 c4 88 3d
       0.0028024474 -0.12681162 -0.06173199 0.0667806
0003f0 c8 a9 e8 3c be 4e e2 3b 9e 29 4c 3c 2e 3d 21 3c
       0.02840127 0.0069063595 0.012461094 0.0098412465

fc2.bias f4 [200]
000000 e7 63 16 bd a7 24 3d bc 8a 43 7b bd 4d f9 57 bd
       -0.036716368 -0.011544383 -0.061343707 -0.052727986
000010 5c 5d 6c 3d 0c 6b c1 3b 4e 1d 2e bd da 8d 4e bd
       0.057706222 0.0059026536 -0.042508416 -0.05042825
000020 27 b5 70 3d 36 2e 3d 3d 66 66 1c 3d 08 49 29 bd
       0.05876651 0.04618665 0.038183592 -0.041329414
000030 32 8f c4 bb ab 73 22 3d ee c1 72 bd 38 9a 53 3d
       -0.0059985155 0.03966109 -0.059266977 0.051660746
000040 27 4e af ba ed e9 a5 bb 99 82 18 3c f3 86 22 3a
       -0.0013374732 -0.0050632865 0.009308481 0.00061999186
000050 ae da 2a bd 50 43 24 bc 14 2a d9 bb 45 c7 4e bd
       -0.041712455 -0.010025814 -0.0066273306 -0.050483007
000060 73 2e 0e bc 18 b7 33 3c ea f7 f3 bc 6d ef 54 bd
       -0.008678067 0.010968946 -0.0297813 -0.051986147
000070 96 8b 6c bc 57 e2 82 3d 84 9b 82 bd 44 26 86 bc
       -0.014437577 0.06390827 -0.063773185 -0.016375668
000080 de 8c 4e bd fd 4d 0c bc 4a f4 86 bd e8 b7 06 bc
       -0.05042731 -0.008563516 -0.06589563 -0.008222558
000090 3f 33 ff bc bc 9d 37 3d b6 86 59 3d 62 61 71 bd
       -0.031152366 0.04482816 0.053106986 -0.058930762
0000a0 58 6f ca bc 36 55 3b 3d 33 4c 82 bd 85 1b 34 3d
       -0.024711296 0.04573556 -0.0636219 0.043971557
0000b0 f2 96 03 bc f0 2a 8b bc a2 9a 08 bd 30 66 7e 3d
       -0.008031594 -0.016988248 -0.033350594 0.062109172
0000c0 63 51 05 3d 6e 7d 77 3d 16 be 44 bc e1 44 29 bd
       0.03254832 0.060422353 -0.012008211 -0.041325454
0000d0 d0 3d f0 3c f3 69 50 ba 32 1d 35 bd b0 8e 3c 3c
       0.02932635 -0.0007950358 -0.044217296 0.011508629
0000e0 8b 58 63 bc 66 09 a0 38 48 e9 13 3d 30 50 97 3d
       -0.013876091 7.631145e-05 0.036111146 0.073883414
0000f0 a6 e2 eb bc fa b9 34 3d 9c 17 6f bd be cc a8 bd
       -0.028794598 0.044122674 -0.058372125 -0.082421765
000100 f9 bd a2 3c 35 d1 31 3d c6 cc 90 3d 89 1d 91 bd
       0.019865977 0.043412406 0.070703074 -0.070857115
000110 b9 a9 98 3d 9a 6d 55 3d 14 5e 5b 3d a6 3f 86 bd
       0.07454247 0.052106477 0.053556517 -0.06555109
000120 99 69 f0 bc 55 b3 61 3b 4d 6f dd bc 34 af 46 3d
       -0.029347228 0.0034439166 -0.027030611 0.04850693
000130 e0 71 06 bd f6 da 75 3c b5 58 04 3d fa 46 d7 ba
       -0.032823443 0.015005818 0.03231116 -0.0016424351
000140 67 15 5b 3c e9 75 44 bd 0a 1d 31 bd 40 80 86 bd
       0.013371802 -0.04796401 -0.043240584 -0.065674305
000150 fd 3f 94 bd 25 e1 81 bd af 51 ae bc 71 1f 0d bd
       -0.07238767 -0.06341771 -0.021279184 -0.034453813
000160 28 d8 00 3c e0 d6 51 3d 68 35 46 bd 05 1c 39 bb
       0.007864036 0.05123031 -0.048390776 -0.002824546
000170 cf d4 a4 bc d1 59 b5 bd 20 ce 35 3c d4 de 60 bd
       -0.020121006 -0.08855022 0.011096507 -0.054900005
000180 56 2d b0 bb 2b 93 54 bd 1f fe 60 bd 92 3c 92 bd
       -0.005376498 -0.051898163 -0.05492985 -0.07140459
000190 43 b8 c5 bb 67 d9 82 3c 08 b7 8b 3d 8c cb 81 bd
       -0.0060339286 0.015972806 0.0682202 -0.063376516
0001a0 28 bb 82 3d 5f 0f 6f 3d 46 d6 5a 3d 8e e3 43 3d
       0.063833535 0.05836427 0.053427003 0.047824435
0001b0 4f f5 2b 3d 46 ba 8f bd 2b 5d 92 3c eb d5 7a 3c
       0.04198199 -0.07017951 0.017866692 0.015309791
0001c0 a6 2c 87 3c c0 9e 92 3d 3b 1c a8 3c a6 40 6c bd
       0.016500782 0.071591854 0.020521274 -0.05767884
0001d0 1f 90 20 bd 17 57 34 bc 80 eb b8 3c 5f a1 f0 3b
       -0.039199945 -0.011007092 0.022573233 0.0073434557
0001e0 55 63 6d 3d 49 e6 51 3d f2 89 02 bd dd ec 42 3d
       0.05795606 0.051245008 -0.031869836 0.04758917
0001f0 32 b3 07 bd ec 69 69 3d ea fa 54 bc be e6 06 bb
       -0.03312988 0.05698578 -0.012999276 -0.002058431
000200 72 e2 a9 3c b7 d2 82 bb 70 bd 0e bc bb 8a b6 3c
       0.02073786 -0.0039924043 -0.008712158 0.022282949
000210 55 60 51 3d 73 24 96 3c 98 87 45 bd 7e 43 48 bd
       0.05111726 0.018327927 -0.048225015 -0.04889249
000220 61 23 88 3c 5a 07 32 3d 74 6f 56 3d 8a 4d 26 bd
       0.016618432 0.043464042 0.052352384 -0.04060129
000230 70 10 37 3d 6a ee 09 3d 47 6f 6f bd 32 9e a6 3c
       0.04469341 0.033674635 -0.05845573 0.020339105
000240 61 4b df 3b 53 11 cc bc cc 59 9e bc 83 b7 48 3d
       0.006814406 -0.024910605 -0.019329928 0.049003135
000250 2c 4e 24 3d 1d 3c 3f bc 7b 46 39 bc af 51 80 bd
       0.040113613 -0.011672047 -0.011308308 -0.0626558
000260 b7 ea f3 3c c4 76 a9 3d 8a a4 88 3d 3e f7 1b bd
       0.029775007 0.08274606 0.06672008 -0.038077585
000270 b2 78 89 bd d0 db df 3b 22 d5 2e bd 4d d1 ef 3c
       -0.06712474 0.0068316236 -0.042683728 0.029274607
000280 c8 39 ad 3c be 96 85 bd 72 ab 96 bc 72 0c 63 bb
       0.021145716 -0.065228924 -0.018392298 -0.003464487
000290 73 12 e0 3b 60 7f 19 bd 91 ea 90 3b 7d e1 6d 3b
       0.006838137 -0.03747499 0.0044224937 0.0036297732
0002a0 97 6f 80 3d 02 5d f3 bc 78 af 8e bd e5 92 a8 bc
       0.06271284 -0.029707436 -0.06967062 -0.020577857
0002b0 3d 02 4d bc 0d ea 84 bd 35 a9 f9 bc 54 b7 81 3d
       -0.012512741 -0.06489954 -0.030476192 0.06333795
0002c0 17 c1 88 bd 76 70 70 bd 03 29 86 3d 7c b3 80 3d
       -0.06677454 -0.058701 0.06550791 0.06284234
0002d0 43 c6 20 3c ec 61 59 3c cd 0c 67 bd 70 a6 49 bd
       0.009812894 0.013267975 -0.056408692 -0.049230993
0002e0 cd df 19 3b a5 7b af 3b db f8 72 ba 85 1f 6f 3d
       0.0023479343 0.0053553157 -0.000926865 0.05837967
0002f0 e8 c0 70 bd 61 a2 87 3d f5 21 58 bd 48 4a 46 bd
       -0.05877772 0.06622768 -0.05276676 -0.048410684
000300 38 e0 e7 ba ca 4c 9f bd 8d a5 a8 bb 1d 49 01 bd
       -0.0017690724 -0.07778318 -0.0051466883 -0.031563867
000310 23 c8 64 3d 02 4d 2e bd 61 7e 8f 3c 88 42 4e bd
       0.055854928 -0.04255391 0.017516317 -0.050356418

fc3.weight f4 [10, 200]
000000 54 83 31 bc 3a 31 64 be 62 64 2d 3d 8e 2a bf 3e
       -0.010834534 -0.22284403 0.04233206 0.37337154
000010 e7 7b 26 3c b2 ce 6f 3e 7c 69 77 be e9 2f dd 3e
       0.010161377 0.23418692 -0.24161333 0.43200615
000020 1f 38 53 3e ad c8 08 3f a8 f3 bd 3e 1f d8 ca 3d
       0.20626877 0.53431207 0.37099957 0.09904503
000030 47 75 da 3e 49 7e 37 bd 5f fa 31 3e 56 3a 9c be
       0.426676 -0.04479817 0.17380665 -0.30513257
000040 43 09 29 bf 89 62 6c be 82 53 3f 3d 2b 7d 9f bd
       -0.6602976 -0.23084463 0.0467105 -0.07787546
000050 dd 13 89 3d 24 a9 87 3e 15 60 87 be 75 ae 07 be
       0.06693242 0.26496232 -0.26440492 -0.13250144
000060 ba 1c 70 3d 8c 4d c1 3e 65 55 92 be 87 d4 32 3e
       0.058621146 0.37754476 -0.28580776 0.17463885
000070 64 10 55 3e 98 c6 1f be 9f 70 bf bd 85 13 f8 3e
       0.20807034 -0.15603101 -0.09347653 0.48452392
000080 1a 24 19 3c f9 27 ae bd 23 84 59 be 98 82 9a be
       0.009346986 -0.08503718 -0.21241812 -0.3017776
000090 d3 20 1f bf b2 5d f8 bd 9f f5 1b 3e 9b 9d c8 bd
       -0.6215946 -0.12127246 0.15230416 -0.09795686
0000a0 c7 c8 14 bf f2 bb d8 3d 2d f7 42 3f 99 22 2f 3d
       -0.5811886 0.10582723 0.7615841 0.042757604
0000b0 61 c4 c9 3e f0 52 d5 be 76 0f dc 3e e1 f9 ab 3d
       0.39407638 -0.4166484 0.42980546 0.0839727
0000c0 23 76 f3 be 2b 05 d2 be 46 34 30 be 13 89 66 be
       -0.4755107 -0.41019568 -0.1720744 -0.22513227
0000d0 73 c5 e4 be 14 2c 50 be a9 59 e1 3e f9 6a a0 be
       -0.44681892 -0.20329314 0.44013718 -0.31331614
0000e0 01 de 9b 3c 29 98 14 be e6 b1 c1 3d df 9d b1 3e
       0.019026758 -0.1451117 0.094577596 0.3469076
0000f0 38 fc 90 be 21 15 ea bc 9e 84 d7 3e d4 5f 95 3e
       -0.28317428 -0.028574528 0.42093366 0.29174674
000100 ed fc 99 bd 64 f8 57 be 55 1d ba be 1e cf ac bd
       -0.07518945 -0.21090847 -0.36350504 -0.08437942
000110 44 a5 ff be 75 01 50 be 91 e0 48 3e 5c 78 f6 bd
       -0.49930775 -0.20313056 0.19616915 -0.120346755
000120 34 1d 6b be 1f af 12 be 19 50 68 be aa ce da 3d
       -0.22960359 -0.14324616 -0.22686805 0.10683949
000130 4b 7f 9c be 0f eb 3e 3d 35 f3 ca 3d f3 4c b0 be
       -0.30565867 0.046610888 0.09909669 -0.34433708
000140 ef 96 5b be bb f5 e4 3e 43 a7 cd be ed 47 cf be
       -0.21444295 0.44718727 -0.40166673 -0.40484563
000150 6e a3 69 3e a5 8d 15 be ae 2d 99 be de e8 83 3e
       0.2281625 -0.14604814 -0.29917663 0.257636
000160 06 35 5a be e5 2d 36 3e 64 1d d5 3e 3f b9 8d bd
       -0.2130929 0.17790945 0.41623986 -0.069200985
000170 53 9e da 3e 14 83 d1 3e a0 73 3c be 4e b5 ba 3e
       0.42698917 0.40920317 -0.18403482 0.3646645
000180 2c 3f 93 3e f5 89 09 bf 15 1f 63 be 9a c5 a2 be
       0.28759134 -0.5372613 -0.22179826 -0.31791383
000190 9d 54 71 3e 4b b6 e8 be 1a c7 c1 bc e9 fd 83 3d
       0.23567434 -0.45451578 -0.02365451 0.06444914
0001a0 d4 6a 6e be b8 20 8c 3e 75 dd 02 3f 72 72 ae be
       -0.23282939 0.27368712 0.51119167 -0.3407169
0001b0 fc 15 81 3e e4 6e b1 3e f8 9b cb 3e 8a 5b 9d be
       0.25212085 0.34654915 0.39767432 -0.307339
0001c0 29 98 e6 3e b3 bd 8c 3e 0b 98 1e be 56 4b bf 3e
       0.45037964 0.2748848 -0.15487687 0.37362164
0001d0 fc 67 8d bd b9 2e 9f bd 43 46 c8 3e 1e 7c eb 3d
       -0.06904599 -0.077725835 0.39116105 0.11498283
0001e0 3a 88 28 be 5d d5 04 3d 39 0d 0e 3e 70 a5 d2 3e
       -0.16458216 0.03243004 0.13872232 0.41141844
0001f0 9c d6 c7 3d 9d 55 83 be 81 5e a6 3d 9c ca 3f be
       0.0975773 -0.25651255 0.08123494 -0.18729633
000200 d6 46 b5 bd 20 a0 25 bf 49 6c 6e bd 50 14 1e bd
       -0.088514015 -0.64697456 -0.058208738 -0.03859359
000210 1e d8 b2 bc 19 3c 53 3e a5 28 67 3d 6e e3 9b be
       -0.021831568 0.20628394 0.056435246 -0.30446953
000220 76 14 04 3f a0 7b c4 3e 93 5e 95 be c6 f0 c2 bd
       0.5159372 0.38375568 -0.29173717 -0.0951858
000230 80 24 d3 bd 0c da 27 bd 41 84 fc 3e 0f 86 e6 be
       -0.10309696 -0.04097943 0.49319652 -0.45024154
000240 b6 ee a5 be 8f dc 6b 3e 57 44 51 be e0 ca d0 be
       -0.32408684 0.23033355 -0.20436226 -0.4077978
000250 fa 29 8b be 9f 89 c3 3e 00 93 e9 bd 60 e2 2b 3f
       -0.27180463 0.38190934 -0.11404991 0.67142296
000260 68 a4 a9 be 6e 72 0b bf 3b 19 9b 3e 8f d5 82 be
       -0.33133245 -0.5447148 0.30292687 -0.25553557
000270 62 19 82 bd 80 a6 c3 3a f7 77 93 be d0 29 50 3e
       -0.06352498 0.001492694 -0.28802463 0.2032845
000280 f1 b0 ad bc df 3a bd 3d 34 fd b2 be 78 29 cc be
       -0.021202536 0.092397444 -0.34958804 -0.39875388
000290 bb 48 0a bf 03 94 5d 3e fa df b8 be 60 6a d6 bb
       -0.5401723 0.21638493 -0.3610838 -0.0065434426
0002a0 02 b3 8a 3e e4 a8 1c bf d5 db 48 be 71 b3 b4 3e
       0.27089697 -0.61195207 -0.1961511 0.35293153
0002b0 f0 80 ac bc 12 35 99 3d 85 c1 e7 bd cc fb d3 be
       -0.021057576 0.074808255 -0.11316208 -0.41403043
0002c0 d7 75 ff bc 46 da 69 3e 16 f2 f3 be c5 82 97 3e
       -0.03118412 0.22837171 -0.47645634 0.29591957
0002d0 6c 25 08 be 22 d9 3a bd 96 14 f1 bd b6 8b 18 be
       -0.13295525 -0.04561723 -0.117715046 -0.14897045
0002e0 ed 1e 92 3e c1 bc 00 be 74 c3 8f be d3 32 68 be
       0.2853922 -0.12572004 -0.28078806 -0.22675638
0002f0 e0 75 25 be a3 55 bb be 82 89 b8 be 54 4b c5 3e
       -0.16158247 -0.36588773 -0.3604241 0.38534033
000300 76 c5 da 3d 72 19 63 3e 46 db 02 3f 2a 90 83 be
       0.10682194 0.22177675 0.51115835 -0.25695926
000310 d2 34 a8 3e 5d c4 95 3e f5 1b 98 3d 28 42 eb be
       0.328528 0.29251376 0.074272074 -0.4594891
000320 cf 7f 0e bf f7 09 b0 3e 36 0e 82 3e fd 4a c2 be
       -0.5566377 0.34382603 0.25401467 -0.37947837
000330 49 5c a2 3e e3 e4 19 be 80 fe 90 be 3b 82 1e bf
       0.31711033 -0.1502872 -0.28319168 -0.61917466
000340 5a a3 ca be 4b e4 ac be 91 9d 04 bf e6 81 40 bf
       -0.39577752 -0.33767924 -0.5180293 -0.7519821
000350 60 f9 5e be eb 8a 2d bf 74 d2 fa be 06 e3 d0 3e
       -0.21774817 -0.67790097 -0.48988688 0.40798205
000360 8d 5d 0e 3f 35 e2 09 3e de 11 32 bf fb e0 0e 3f
       0.556115 0.13465197 -0.69558513 0.5581204
000370 7c ed ce bd e7 05 b3 3e 39 b0 be 3e 64 05 0a 3e
       -0.1010389 0.3496544 0.37243822 0.13478619
000380 94 98 9e be 5f cb cf 3d 67 51 3d 3e 87 81 03 bf
       -0.30975783 0.10146212 0.18488084 -0.5136952
000390 a8 ff da bd 6b 6e 18 3f 0e f4 33 3e 0d b6 6e bf
       -0.10693294 0.59543484 0.17573568 -0.9324654
0003a0 18 1c f4 3e 20 77 18 3f 0f 84 33 be d5 8d c9 3d
       0.47677684 0.5955677 -0.17530845 0.098415054
0003b0 fe 42 0f 3f 95 77 4d 3d 18 2c b0 be fe 60 0d bf
       0.55961597 0.05016287 -0.3440864 -0.55226123
0003c0 69 4f 2e 3f 35 c6 9f be c1 7f b7 be 13 0e a1 3e
       0.6808992 -0.31205907 -0.35839656 0.3145605
0003d0 4d 19 03 3e 3e a9 38 3f c1 0d 18 be d6 d2 ad 3e
       0.1280262 0.72133243 -0.14848997 0.33949918
0003e0 98 95 d5 bd d5 41 93 3e ce b2 6f 3e 34 3e b4 3c
       -0.10428923 0.28761163 0.23408052 0.022002317
0003f0 1e bc 07 be 71 3a 95 3e 6f 0e 8c be 13 75 27 3e
       -0.13255355 0.2914615 -0.27354762 0.16353254

fc3.bias f4 [10]
000000 fb 57 96 3d 24 ac a9 3d b5 4c 14 3d d4 49 ef bd
       0.07341 0.08284786 0.036205966 -0.116840035
000010 17 38 94 3d a9 91 79 bc f6 9b c2 3d 3f a2 00 3d
       0.07237261 -0.015232482 0.095024034 0.03140473
000020 52 65 0b be f2 b4 51 bd
       -0.1361287 -0.051197954
