bagging/parameters/parameters_1net4bagging.pth (torch, 796799 bytes, 4 tensors)

fc1.weight f4 [250, 784]
0	0xbc7d61d8	-0.015465222
1	0x3c37bd65	0.011214589
2	0x3c953ad3	0.018216526
3	0xbcbd6cf1	-0.023123236
4	0xbdaccd1f	-0.08437561
5	0xbe9b39b0	-0.3031745
6	0xbea5d994	-0.3239256
7	0xbe89eb54	-0.26937354
8	0xbf1503e2	-0.5820905
9	0x3ec5e32d	0.38649884
10	0x3f822f26	1.0170639
11	0x3e645868	0.2229935
12	0xbe24f500	-0.16109085
13	0x3e7ff9d0	0.2499764
14	0x3ea1f5c9	0.31632832
15	0x3e88924e	0.26674122
16	0xbe13b766	-0.1442543
17	0x3efb590d	0.49091378
18	0x3e5707c8	0.20999062
19	0x3f1c2ae3	0.6100294
20	0x3f24b9f9	0.6434627
21	0x3f1406a6	0.57822645
22	0x3f3ef273	0.745887
23	0x3eda802e	0.42675918
24	0x3c8f256b	0.017473897
25	0x3d597df2	0.053098626
26	0xbc567f7c	-0.013091918
27	0xbcc134ba	-0.023584712
28	0x3c9abb0a	0.018888015
29	0xbbc22d1c	-0.0059257876
30	0xbce440ac	-0.02786287
31	0xbc2d2752	-0.010568457
32	0xbe2b5b7c	-0.16734117
33	0x3e37a76a	0.17934957
34	0xbefc3648	-0.49260163
35	0xbed0d603	-0.40788278
36	0x3f592a26	0.8482994
37	0x3e5c2699	0.21499099
38	0xbe9a26d2	-0.30107743
39	0xbf4477d2	-0.7674533
40	0xbe84ddca	-0.25950462
41	0xbe8d0163	-0.2754012
42	0xbe723b53	-0.23655443
43	0xbc8c108e	-0.017097738
44	0xbee5a40b	-0.44851717
45	0xbead155f	-0.33805367
46	0xbeca0b07	-0.39461538
47	0xbe124c4c	-0.14286917
48	0xbf323ead	-0.69626886
49	0xbeb77166	-0.35828704
50	0x3d7278ac	0.059197113
51	0x3f1aac6d	0.6041935
52	0x3dfaa9de	0.12239431
53	0x3e4a5c30	0.19761729
54	0x3e32f1f6	0.17475113
55	0x3d946369	0.072455235
56	0xbcfe6b83	-0.031057125
57	0x3cea111e	0.028572615
58	0xbcbb960a	-0.022898693
59	0xbc7b968a	-0.0153557155
60	0x3e9efdf2	0.3105312
61	0x3f2e3063	0.6804258
62	0x3e05391d	0.13010068
63	0xbe56d7d7	-0.20980774
64	0x3e18d9a0	0.14926767
65	0xbe034e2f	-0.12822793
66	0xbf3b07c9	-0.73058754
67	0xbe3bd1ce	-0.18341753
68	0xbeac559d	-0.33659068
69	0xbf354b87	-0.7081837
70	0xbf1cc8ca	-0.6124388
71	0xbf042d85	-0.5163196
72	0xbe22e0da	-0.15906087
73	0xbdff2712	-0.12458624
74	0xbf90cad0	-1.1311893
75	0xbf35d7c9	-0.71032387
76	0xbf3cc4e9	-0.7373796
77	0xbe70008a	-0.23437706
78	0x3f322421	0.6958638
79	0x3face39a	1.3506958
80	0x3f407d60	0.7519131
81	0x3e9a07b0	0.3008399
82	0x3ea2a266	0.31764525
83	0x3e0b0f98	0.13580167
84	0x3bd9991c	0.0066405665
85	0xbe9ec64a	-0.31010658
86	0x3d58af2e	0.05290144
87	0xbef2bb79	-0.47408655
88	0x3e4ffbe2	0.2031093
89	0xbeac7784	-0.33684933
90	0xbf316ce4	-0.6930678
91	0xbfa205b0	-1.2657986
92	0x3cc8b8c8	0.024502173
93	0xbf0cea2c	-0.5504482
94	0xbef8ab00	-0.48567963
95	0x3dcd04df	0.10010695
96	0xbedc2d38	-0.4300325
97	0x3bbe47b1	0.005806886
98	0xbf3ee23f	-0.74563974
99	0x3cc7b545	0.024378428
100	0xbd904b02	-0.070455566
101	0x3d0e0fd8	0.03468308
102	0x3969d08e	0.00022298304
103	0x3dedd182	0.11612226
104	0xbdc9148b	-0.098183714
105	0x3ee0597e	0.43818277
106	0x3ed8263b	0.42216668
107	0x3f549cc8	0.8305173
108	0x3f2523c3	0.64507693
109	0x3f4fda32	0.81192315
110	0xbdbdfc2c	-0.092766136
111	0x3df302ca	0.11865766
112	0xbcb187ec	-0.021671258
113	0xbe86a7df	-0.2629995
114	0x3e6487e9	0.2231747
115	0xbe6623b6	-0.2247456
116	0xbf19c84e	-0.60071266
117	0xbf69ba5e	-0.913
118	0xbeb931e1	-0.36170867
119	0xbed0ffc5	-0.40820137
120	0x3d90a6d5	0.07063071
121	0xbe95e47c	-0.29275882
122	0xbeca8d6e	-0.39561027
123	0xbe034b26	-0.12821636
124	0x3ea4cd78	0.3218801
125	0x3e5aaf04	0.21355826
126	0x3e8183b0	0.25295782
127	0x3e2a0ce5	0.16606481
128	0x3e2e694b	0.17032354
129	0x3d01e4f2	0.03171248
130	0x3e4ac277	0.19800745
131	0xbc65d797	-0.014028451
132	0x3f21ebf6	0.6325067
133	0x3f295d11	0.66157633
134	0x3f31c5f9	0.6944271
135	0x3fa7387d	1.3064114
136	0x3e8128e9	0.25226524
137	0x3e4fca7a	0.20292082
138	0x3c363a04	0.01112223
139	0x3ebfbfee	0.37451118
140	0x3e8bde0c	0.27317846
141	0x3e81380f	0.25238082
142	0xbef9de0f	-0.4880223
143	0xbf170582	-0.5899278
144	0xbd837eac	-0.06420645
145	0xbf22b729	-0.6356073
146	0xbf1600bd	-0.58594877
147	0xbe913251	-0.283587
148	0xbe19b64d	-0.15010948
149	0xbe2648c0	-0.1623869
150	0x3dce83c2	0.100837246
151	0xbea3dc5d	-0.3200406
152	0x3d87ad5a	0.06624861
153	0x3e7e762e	0.2484977
154	0x3cc83045	0.02443708
155	0x3de11f54	0.109923035
156	0xbda735da	-0.08164568
157	0xbe14b42e	-0.14521858
158	0x3d467917	0.048455324
159	0xbdffc1b5	-0.124881186
160	0x3e666785	0.22500427
161	0x3fc91d43	1.5712055
162	0x3fde68f3	1.7375778
163	0x3f947268	1.1597414
164	0x3e2a70aa	0.1664454
165	0x3e5d5031	0.21612622
166	0x3e3f2fd0	0.18670583
167	0x3efa4a61	0.48884872
168	0x3d96fa9d	0.073720194
169	0x3f29a6a3	0.6626989
170	0xbe47100f	-0.1943972
171	0xbe81f0a4	-0.25378907
172	0xbe760c0e	-0.24028036
173	0xbe762ad0	-0.24039769
174	0xbf19db79	-0.60100514
175	0xbe3d5cd4	-0.18492442
176	0x3cf1eb35	0.0295311
177	0x3e1119a1	0.14169933
178	0x3de967d5	0.113967575
179	0x3e545aa1	0.20737697
180	0x3e7bd2c8	0.24592125
181	0x3e3b9341	0.18317892
182	0x3dff1616	0.124553844
183	0x3d5d2ed0	0.053999722
184	0xbd852134	-0.065004736
185	0xbe47c6f3	-0.19509487
186	0x3d2f739f	0.042834874
187	0x3c3ef6a1	0.011655481
188	0x3e96fc5d	0.29489413
189	0x3f86b74f	1.0524691
190	0x3fde8bb0	1.7386379
191	0x3faba052	1.3408301
192	0xbcc9f021	-0.024650635
193	0x3f04d412	0.51886094
194	0xbc1d77c9	-0.009611079
195	0x3f19b8eb	0.6004779
196	0x3d8d1991	0.06889642
197	0xbe7ddb68	-0.24790728
198	0xbf0ba440	-0.545475
199	0xbf17221a	-0.5903641
200	0xbeaae500	-0.33377838
201	0xbda79aaf	-0.081838004
202	0xbec488da	-0.3838566
203	0xbdf50d6b	-0.1196545
204	0x3dc4e0b5	0.09613172
205	0xbd617779	-0.05504558
206	0x3de7d4ca	0.11319883
207	0x3ea1cf3b	0.31603417
208	0x3eadc4c9	0.33939198
209	0x3e4171f9	0.18891133
210	0xbcc4d56e	-0.024027552
211	0xbe0d59c3	-0.13803773
212	0xbdd6fdaa	-0.10497601
213	0xbe9d53d6	-0.30728024
214	0x3da82660	0.082104445
215	0xbe236410	-0.1595614
216	0x3e2a628c	0.16639155
217	0x3f4dc1e2	0.80373967
218	0x3fd35657	1.6510724
219	0x3f97f461	1.1871454
220	0x3ec6ff6e	0.38866752
221	0x3e27e9d0	0.16397786
222	0xbe333748	-0.17501557
223	0x3f3f18ed	0.7464741
224	0xbd8e1507	-0.069376044
225	0xbec515b5	-0.38493124
226	0xbef22bdc	-0.47299087
227	0xbf29a201	-0.66262823
228	0xbeab3e13	-0.33445796
229	0xbdd95cb1	-0.106133826
230	0xbe6cd06b	-0.2312638
231	0xbd0ae996	-0.03391417
232	0x3e326998	0.17423093
233	0xbdbd7a2f	-0.0925182
234	0x3deca752	0.11555351
235	0x3eafa9f9	0.34309366
236	0xbc06912d	-0.008213324
237	0xbe285044	-0.16436869
238	0xbd929196	-0.071566746
239	0x3e28c4aa	0.16481271
240	0xbe22d968	-0.15903246
241	0xbc363a5b	-0.011122311
242	0xbdd2d180	-0.10293865
243	0x3e6cee15	0.23137696
244	0x3db5babe	0.08873509
245	0x3f84f041	1.038582
246	0x3ffb0c37	1.9613103
247	0x3f812a29	1.0090991
248	0x3eab293c	0.33429897
249	0xbec88ce8	-0.39170003
250	0xbea436f5	-0.3207318
251	0x3d95cdfe	0.073146805
252	0xbf0aad6f	-0.5417089
253	0xbf25c81c	-0.6475847
254	0xbf49a2df	-0.78764147
255	0x3dfd7741	0.123762615

fc1.bias f4 [250]
0	0x3f0ff818	0.56237936
1	0xbdc287a1	-0.094985254
2	0x3e93cdb0	0.28867865
3	0x3df18b7b	0.11794182
4	0x3e55ffc9	0.20898356
5	0xbe6375de	-0.22212932
6	0xbeb71e73	-0.35765418
7	0x3da0db81	0.07854367
8	0x3e3281ce	0.17432329
9	0xbe263a2f	-0.16233133
10	0x3f228c49	0.6349531
11	0x3ec8ef7a	0.39245206
12	0x3eb0e250	0.34547663
13	0x3e338deb	0.17534606
14	0xbdecd534	-0.11564103
15	0x3f0dc9cb	0.55386037
16	0xbf0e334a	-0.5554701
17	0xbd458ab4	-0.04822798
18	0x3d7d520c	0.061845824
19	0xbe2e7785	-0.1703778
20	0xbe503bd2	-0.2033532
21	0x3e4f17be	0.202239
22	0xbde70c38	-0.112816274
23	0xbd55b5d9	-0.052175377
24	0x3e23f741	0.16012289
25	0x3ec5f007	0.3865969
26	0x3e1d86dc	0.15383476
27	0xbe092f4c	-0.13396949
28	0xbd7955eb	-0.060872953
29	0x3f2551f6	0.6457819
30	0x3ee6c076	0.4506871
31	0xbc04b9d6	-0.008100947
32	0x3d08c60f	0.03339201
33	0x3e6e5bc2	0.2327719
34	0x3f0e9956	0.5570272
35	0x3f1585c1	0.5840722
36	0xbdf69813	-0.120407246
37	0x3d174d68	0.036939055
38	0xbe68444c	-0.22682303
39	0x3f3a330f	0.7273416
40	0xbe9ad4e4	-0.30240548
41	0xbe33e83a	-0.17569056
42	0x3eed237f	0.46316144
43	0xbe257eee	-0.16161701
44	0xbf4277d5	-0.759641
45	0xbce1b0f8	-0.027550206
46	0x3f4a9ea4	0.79148316
47	0xbe817d6f	-0.2529101
48	0xbe2f8a5c	-0.17142624
49	0xbe894155	-0.26807657
50	0x3f08d4b3	0.53449553
51	0xbe09d8e5	-0.13461645
52	0x3e5a4dc9	0.21318735
53	0x3c88c097	0.016693396
54	0x3e915a04	0.2838899
55	0x3e2409d7	0.16019379
56	0x3f00abcb	0.50262135
57	0xbecd42f3	-0.4009014
58	0xbe4d7531	-0.20064236
59	0xbe2f28f1	-0.17105462
60	0xbf0df979	-0.5545879
61	0xbe5b7f24	-0.21435219
62	0xbf5ce58c	-0.8628776
63	0xb9a42a07	-0.0003131183
64	0x3d8c67f6	0.068557665
65	0xbea92bd4	-0.3304125
66	0x3f115afa	0.56779444
67	0xbdb4d64e	-0.08829938
68	0x3ccd4253	0.02505604
69	0x3ea0d292	0.31410652
70	0xbf2de733	-0.67930907
71	0xbe3e5d3c	-0.18590254
72	0xbd139d4e	-0.03603869
73	0x3e39a040	0.18127537
74	0x3e84008d	0.2578167
75	0xbe2d5a0b	-0.1692888
76	0x3eb5ca11	0.35505727
77	0xbe6f1498	-0.233477
78	0xbef13835	-0.47113195
79	0x3df83509	0.12119491
80	0xbf26c42c	-0.65143085
81	0x3d28c41d	0.041202653
82	0xbe495204	-0.19660193
83	0xbe10a8b9	-0.14126863
84	0xbf2b676f	-0.669547
85	0xbeac4185	-0.33643737
86	0x3e7ec65b	0.24880354
87	0x3e3b9508	0.1831857
88	0x3e28409c	0.16430897
89	0x3e3fbcbe	0.18724343
90	0x3ec954e1	0.3932257
91	0xbe41b7b9	-0.18917741
92	0x3dca062c	0.098644584
93	0x3e6acf2c	0.22930592
94	0xbbba2118	-0.0056802146
95	0x3ed5db79	0.41769007
96	0x3ec62e48	0.38707185
97	0x3edb49f4	0.4282986
98	0xbe5b416c	-0.21411675
99	0xbe26207a	-0.16223326
100	0x3da9b4e9	0.08286459
101	0xbe025585	-0.12727936
102	0xbec29ff3	-0.38012657
103	0xbea3cc5b	-0.31991848
104	0x3dbe5123	0.09292819
105	0x3de4b9ca	0.11168249
106	0x3ec5cea9	0.38634232
107	0x3dea0810	0.11427319
108	0x3edd7edc	0.4326085
109	0xbf136b59	-0.57585675
110	0x3df3bf3e	0.11901711
111	0x3cfef1f9	0.03112124
112	0xbf238eb8	-0.63889647
113	0x3d14493d	0.036202658
114	0xbf0e5499	-0.55597836
115	0xbf51a65e	-0.8189448
116	0x3e34a9a7	0.17642842
117	0xbe5ed088	-0.21759236
118	0xbbb68460	-0.0055699795
119	0x3d563718	0.052298635
120	0x3e07c394	0.13258201
121	0xbedf7210	-0.4364171
122	0x3f1d31bd	0.6140402
123	0xb9a2aea1	-0.00031029157
124	0x3dc7ee0a	0.09762199
125	0xbf1f82f9	-0.62309223
126	0xbefd8da2	-0.4952212
127	0x3ea58a07	0.3233187
128	0x3ecece86	0.4039194
129	0x3d0173a2	0.031604417
130	0x3e1ddd34	0.15416414
131	0x3d90db85	0.0707312
132	0xbe60e189	-0.21961035
133	0xbe2fd126	-0.17169628
134	0x3e895207	0.26820394
135	0xbc7401de	-0.014893023
136	0x3b9c8992	0.004777142
137	0xbc079c2f	-0.008276983
138	0xbf1ece39	-0.6203342
139	0x3d9af846	0.07566886
140	0xbddc4361	-0.10755039
141	0xbe95fbdc	-0.29293716
142	0xbe983021	-0.2972422
143	0x3dfbf6f1	0.1230296
144	0xbec4b188	-0.38416696
145	0xbebe9e78	-0.37230277
146	0x3e60e407	0.21961986
147	0xbf18ae91	-0.5964137
148	0xbec39b47	-0.38204405
149	0x3e441956	0.1915029
150	0xbf19f370	-0.6013708
151	0xbe6ab757	-0.22921501
152	0x3ea97c1d	0.33102503
153	0xbe928c33	-0.2862259
154	0x3df5c25e	0.11999963
155	0x3f5ef5da	0.8709389
156	0xbe2e2ca5	-0.17009218
157	0x3e083cf2	0.13304499
158	0x3eab3860	0.33441448
159	0x3eff5de9	0.49876335
160	0x392af2dc	0.00016302936
161	0x3e3054e3	0.17219882
162	0xbe855014	-0.26037657
163	0x3f059d37	0.52193016
164	0xbcaf1c5f	-0.021375833
165	0xbdd194bf	-0.10233449
166	0x3e8836f9	0.2660444
167	0xbef98d1d	-0.48740473
168	0xbee7e9d8	-0.45295596
169	0xbf17402d	-0.590823
170	0xbd7fbeca	-0.06243781
171	0xbd04de05	-0.032438297
172	0x3b5991ff	0.0033198593
173	0x3edde5d7	0.43339416
174	0xbe9281be	-0.2861461
175	0x3ad74581	0.0016423912
176	0x3dcf7f22	0.101316705
177	0x3ef816bb	0.48454842
178	0x3e3566ab	0.17714946
179	0x3e6ca74d	0.23110695
180	0x3f1c4b6c	0.61052585
181	0xbee57063	-0.44812307
182	0xbe5b3957	-0.21408592
183	0x3e8099ea	0.25117427
184	0xbf05dd28	-0.5229058
185	0x3eb657e6	0.35613936
186	0xbbe20e55	-0.006898681
187	0xbd3b54d0	-0.04573518
188	0xbe86da22	-0.26338297
189	0xbee768d2	-0.4519716
190	0x3f24a632	0.64316094
191	0x3efe5223	0.4967204
192	0xbdc70301	-0.0971737
193	0x3e10c69b	0.14138262
194	0xbf286014	-0.65771604
195	0x3e024b2e	0.12723991
196	0xbea44d7a	-0.3209036
197	0x3eccb58c	0.3998226
198	0x3f185cd6	0.59516656
199	0xbd227442	-0.039661653
200	0xbf5195ee	-0.818694
201	0x3ec399cd	0.38203278
202	0x3e1531d0	0.14569783
203	0xbf0a53ba	-0.54034007
204	0xbeb5e6b2	-0.3552757
205	0xbf1bcc11	-0.60858256
206	0x3e0d8a0f	0.13822196
207	0xbf3df780	-0.7420578
208	0xbe36144f	-0.17781185
209	0xbef500fa	-0.47852308
210	0xbe636276	-0.22205529
211	0xbe67638f	-0.22596572
212	0x3ecb6a74	0.39729655
213	0x3e811336	0.2520997
214	0xbef7f906	-0.48432177
215	0xbf0858ea	-0.5326067
216	0xbd110dbe	-0.035413496
217	0x3dfa1d83	0.1221266
218	0x3f28d994	0.65957
219	0x3bd01fc7	0.0063514444
220	0x3e1bc2e2	0.1521106
221	0xbee592c5	-0.4483854
222	0x3e7c6060	0.24646139
223	0x3ef60383	0.48049554
224	0xbd9829ee	-0.074298725
225	0x3f765e90	0.9623804
226	0xbd8ed92e	-0.069750175
227	0x3f221304	0.63310266
228	0xbf3a506e	-0.72778976
229	0x3efd7037	0.49499676
230	0x3ef280da	0.4736393
231	0xbd90073d	-0.070326306
232	0xbedb0f18	-0.42784953
233	0x3f300a24	0.68765473
234	0xbe61cbff	-0.22050475
235	0xbd0b88c7	-0.034065988
236	0x3f3a83d2	0.7285739
237	0x3deb3a41	0.114857204
238	0x3ecb9da2	0.39768702
239	0xbe64cc68	-0.223436
240	0xbf39b441	-0.7254067
241	0xbde6b0e4	-0.11264208
242	0xbeaa0d3e	-0.33213228
243	0xbe785221	-0.2425008
244	0xbde2c19a	-0.11072083
245	0x3d8a4cfc	0.06752965
246	0x3e21a9e7	0.15787469
247	0x3dafac2e	0.085777625
248	0x3de92cca	0.11385496
249	0xbe0cddde	-0.1375651

fc2.weight f4 [10, 250]
0	0xbf1d2708	-0.6138768
1	0x3e75cd5c	0.2400412
2	0x3bbc698c	0.005749887
3	0x3faeb366	1.3648498
4	0xbefd7864	-0.49505913
5	0xbf1b2304	-0.60600305
6	0xbfa2b47a	-1.2711327
7	0x3f7cc6d2	0.98740876
8	0x40105b8e	2.255588
9	0x3f399705	0.7249606
10	0xbde8ba89	-0.11363704
11	0xbe1bf0e4	-0.15228611
12	0x3e858ff8	0.26086402
13	0x3e85d4b9	0.26138857
14	0x3e31dfbb	0.17370503
15	0x3e9d0ac3	0.30672273
16	0x3ed9202f	0.42407367
17	0x3f26f8e0	0.65223503
18	0x3f4758dd	0.7786997
19	0x3e687553	0.22701006
20	0xc01cde8a	-2.4510827
21	0xc0645174	-3.5674715
22	0x3f16f40b	0.5896613
23	0xc03273a3	-2.788308
24	0xbf44328f	-0.76639646
25	0x3f312b11	0.6920634
26	0x3ef89c92	0.48556954
27	0x3e148b2a	0.14506212
28	0x3eb5690e	0.35431713
29	0xbec62b19	-0.38704756
30	0xbed1b7db	-0.40960583
31	0x3fe05ad8	1.7527723
32	0xbeb5ab3b	-0.354822
33	0x3e3c0c84	0.1836415
34	0x3f291d6e	0.6606053
35	0x3ea752b1	0.32680276
36	0xc06c265a	-3.6898408
37	0x40019107	2.0244768
38	0x3e13706d	0.14398356
39	0xbe533cbd	-0.20628639
40	0x3e7fff8c	0.24999827
41	0xbf36131c	-0.7112291
42	0x3f3441a6	0.7041267
43	0x3f46122a	0.77371466
44	0xbf874b8d	-1.0569931
45	0xbfb57ece	-1.4179323
46	0x3f124934	0.5714295
47	0xc052f501	-3.2962039
48	0x3e1e70c4	0.15472704
49	0xc00e6d55	-2.225423
50	0x3fbfcd68	1.498456
51	0x3ee1c984	0.44099057
52	0x3fbff126	1.4995468
53	0xbffc8728	-1.9728746
54	0xc02f659a	-2.7405763
55	0x3d77e932	0.060525127
56	0xbe82c7c5	-0.25543037
57	0xbf60a984	-0.8775866
58	0xbfc06a17	-1.5032376
59	0xbea53629	-0.32267883
60	0x3ed10216	0.40821904
61	0x3f1dc8fe	0.61634815
62	0xbfcc6bbc	-1.5970378
63	0xbfde4f72	-1.7367995
64	0x3e557e50	0.20848966
65	0xbe7cc587	-0.24684726
66	0x3dfee0bc	0.124452084
67	0xc00e5a38	-2.2242565
68	0xbf38b861	-0.7215634
69	0xbdd76f6a	-0.105192974
70	0x3dae341b	0.08506032
71	0x4018202f	2.3769643
72	0xbdbdf55e	-0.09275316
73	0x3fc66fb2	1.5502837
74	0x3f56c05f	0.83887285
75	0xbf38be1d	-0.7216509
76	0x3eca0c5c	0.39462554
77	0xbee33ea9	-0.44383743
78	0x3f55d3f5	0.83526546
79	0x3f15fbd9	0.58587414
80	0x3f954fc7	1.1664971
81	0xbebe5a07	-0.3717806
82	0xc040e766	-3.0141234
83	0xc010040f	-2.2502477
84	0xc05426c7	-3.3148668
85	0xbe03c314	-0.12867385
86	0x3ed751b2	0.42054516
87	0xbf36261a	-0.7115189
88	0x3fd2f4db	1.6480974
89	0xbf26d5f4	-0.65170217
90	0xbee27983	-0.4423333
91	0x3d6c4236	0.05768033
92	0xbe68a0dd	-0.22717614
93	0x3eb71d4e	0.35764545
94	0x3fa4214b	1.282266
95	0xbe21fcb3	-0.15819053
96	0x3fedd02a	1.8579152
97	0xbf0949b2	-0.53628075
98	0x3f83d3bb	1.029899
99	0x3fb6e064	1.4287229
100	0x3e98a04a	0.2980979
101	0xbe2b1e5c	-0.167108
102	0xbfbcd4eb	-1.4752477
103	0xbe80021f	-0.25001618
104	0xc05a301b	-3.4091861
105	0x3f247cb2	0.6425277
106	0x3dec6b90	0.115439534
107	0x3f2508e8	0.64466715
108	0xbf3f627f	-0.7475967
109	0xbdf8b1d1	-0.12143291
110	0x3f89681c	1.0734897
111	0x3f6bfde9	0.9218431
112	0x3e3accad	0.1824214
113	0xbf56a7d8	-0.8384986
114	0x3f8af70f	1.0856646
115	0x3f9fdd46	1.2489402
116	0xbf8e6a70	-1.1126232
117	0x3f419ab5	0.7562669
118	0xbf2909b9	-0.6603046
119	0xbd554543	-0.052068006
120	0x3eb6ce2c	0.35704172
121	0x3f4a8155	0.79103595
122	0x3e35edb7	0.17766462
123	0x3dde05e6	0.10840969
124	0xbea044da	-0.3130253
125	0xc008c862	-2.1372304
126	0x3f07f5fd	0.53109723
127	0x3d6bde77	0.057585206
128	0x3edac029	0.42724732
129	0xbf217a10	-0.6307688
130	0x3e7fa316	0.24964556
131	0xbf902570	-1.1261425
132	0xbed86cc8	-0.42270494
133	0xbf10f83a	-0.56628764
134	0x3fb99179	1.449752
135	0xbe07e248	-0.13269913
136	0xbfb98a7c	-1.4495387
137	0xbea37c36	-0.31930703
138	0x3f98521a	1.1900055
139	0xbf7da4ff	-0.9907989
140	0x3f94b84a	1.161874
141	0xbe96609f	-0.2937059
142	0xc0381a35	-2.8765996
143	0x3f02eca3	0.5114233
144	0x3fa9ef58	1.3276167
145	0xbe881837	-0.26580974
146	0x3e9bf30e	0.30458874
147	0x3fc07c68	1.5037966
148	0x3f99a6c4	1.2004018
149	0xbecdd073	-0.40198097
150	0xc0238fed	-2.5556595
151	0x3e9759f6	0.29560822
152	0x3f40eba2	0.7535955
153	0x3e9efc3e	0.3105182
154	0xbdfb9599	-0.12284393
155	0x3f388501	0.7207795
156	0x3ffc2c02	1.970093
157	0x3dc69119	0.09695644
158	0xbf72f547	-0.94905514
159	0x3f2341b8	0.63772154
160	0x3fb2d6be	1.3971784
161	0xbd84facf	-0.064931504
162	0xbfe04f90	-1.752428
163	0x3f217392	0.6306697
164	0x3f266ea2	0.6501256
165	0x3dafbf78	0.08581442
166	0xbf7aae34	-0.9792206
167	0x3f92ad26	1.1459091
168	0xbe267cc4	-0.16258532
169	0x4015a02f	2.3379018
170	0x400648e3	2.0981987
171	0xc02c5079	-2.6924117
172	0x3f5d7d7b	0.86519593
173	0xbf5d82ef	-0.86527914
174	0xbfa1167c	-1.2584987
175	0xbde9a3d6	-0.11408202
176	0xbfa72c3c	-1.3060374
177	0x3e8149cc	0.25251615
178	0x3fa4ef91	1.288561
179	0x3d4c0503	0.049809467
180	0x3f27509e	0.6535739
181	0xc05d3ff9	-3.4570296
182	0xc043edab	-3.061381
183	0x3d9406f5	0.072278894
184	0xc00b9c35	-2.1814091
185	0xbf29f6da	-0.6639229
186	0xc00f7d8b	-2.2420375
187	0xbfc70248	-1.5547571
188	0xbf750d00	-0.9572296
189	0xc05daaff	-3.4635618
190	0x3e414531	0.1887405
191	0x3f0c48c4	0.5479853
192	0x3f4d9f78	0.80321455
193	0x3e2ef128	0.17084181
194	0xc048660f	-3.1312292
195	0x3f248d49	0.64278084
196	0x3f585dfe	0.8451842
197	0x3ea0bc62	0.31393725
198	0x3da877d1	0.08225978
199	0xc0130aeb	-2.2975414
200	0xc02846b1	-2.6293147
201	0x3e969b63	0.29415426
202	0x3dc5f4cb	0.09665831
203	0xbd11d9f5	-0.03560825
204	0x3ea92803	0.3303834
205	0xbf18727e	-0.595497
206	0xbf2677f5	-0.6502679
207	0xc0469a4b	-3.1031673
208	0x3ec823d4	0.39089835
209	0xc0182858	-2.3774624
210	0xc0487a36	-3.1324592
211	0xbfae1346	-1.3599632
212	0xbfb9f93d	-1.4529186
213	0x3ff4bfe3	1.9121059
214	0x3e10853a	0.14113322
215	0xbfa9cf1b	-1.3266329
216	0x3fc212f0	1.5162029
217	0xbdacd5e4	-0.08439234
218	0x3eae4834	0.34039462
219	0x3fc18727	1.511937
220	0xc038187f	-2.8764951
221	0x3f367dfc	0.71285987
222	0xbfd61a14	-1.6726708
223	0x3f483cc4	0.7821772
224	0xbfb31335	-1.3990237
225	0x3f3a29cc	0.72720027
226	0x3dd395b7	0.1033129
227	0x3fad606b	1.354505
228	0x3e128984	0.1431027
229	0xbf7026ab	-0.93809
230	0xc04281b6	-3.039167
231	0xbe1b2643	-0.15151314
232	0xbde00e8e	-0.10940276
233	0xbe662c1e	-0.22477767
234	0xbedd337d	-0.43203345
235	0xbf30b9cd	-0.6903351
236	0xbe8f397c	-0.27973545
237	0x3e980c4c	0.29696882
238	0xbf87d243	-1.0611042
239	0xbfd81d03	-1.6883854
240	0x3f47616d	0.77883035
241	0xbf1c54b2	-0.61066735
242	0x3f7caa4b	0.98697346
243	0xc0347f09	-2.8202536
244	0x3ea4e4fe	0.32205957
245	0xbfc45c3d	-1.5340649
246	0xc075c436	-3.8401008
247	0x3fc9618d	1.5732895
248	0xbdd0dd0e	-0.10198413
249	0xbe544bbe	-0.20732018
250	0xbfde23cc	-1.7354674
251	0xbf281626	-0.65658796
252	0x3f3c825c	0.7363641
253	0xbf093856	-0.53601587
254	0x3e413df5	0.18871291
255	0xbd248d35	-0.040173728

fc2.bias f4 [10]
0	0xbe043142	-0.12909415
1	0x3d1b5ad5	0.03792842
2	0xbd5e9970	-0.05434555
3	0x3d7ecc3c	0.06220649
4	0x3d9bf3cc	0.0761486
5	0xbda8bd5d	-0.08239243
6	0x3df111a3	0.11770942
7	0xbce4ebd6	-0.027944487
8	0x3c9e4fac	0.0193251
9	0xbcf4e1e5	-0.029892871
